p1_navigation/trained_results.pth (torch, 29791 bytes, 6 tensors)

input_layer.weight f4 [64, 37]
0.22964881 -0.025450924 -0.21079703 -0.53827816 -1.2689475 -0.081714384 0.054879658 0.06408853
0.18771382 0.16849107 -0.2387444 -0.05370184 -0.054631792 0.09501428 -0.01777819 0.01599129
-0.0062112575 0.05782858 0.10734688 0.08426325 -0.022886757 0.20483679 0.002586372 0.19660552
0.07978087 -0.06580895 0.049296025 0.05021507 0.01734869 -0.035861112 0.04690268 0.040619772
-0.018171668 -0.14489071 -0.27266425 -0.0070743626 -0.004178264 0.28051773 0.0881573 0.005798166
-0.19977826 -0.4341704 0.052569855 0.06403273 -0.41059104 -0.136993 0.29305163 0.06398766
-0.13951834 0.0942931 0.084384575 -0.0441062 0.17959829 0.022275629 -0.09601266 0.02885218
0.11950488 -0.07219108 -0.16746888 -0.03386509 -0.02849546 0.105762206 0.04097732 -0.12085803
-0.039711274 0.079232596 -0.08524958 0.05410041 0.031742737 0.089826204 0.027463421 -0.11466015
-0.029897146 -0.008819456 0.25775403 -0.06434537 0.07391282 -0.66601723 -0.045565262 -0.5065557
-0.30078503 0.34777644 -0.57521725 -0.5853518 0.038136993 -0.18492648 0.115468755 -0.2402198
0.01217354 -0.047549814 -0.021803413 0.054326028 0.17650445 0.039062735 -0.22275473 -0.60982364
0.2852297 -0.12481788 -0.118695736 -0.45704725 0.09452547 0.24695814 -0.34228954 -0.3565077
-0.033502027 0.0031410167 -0.33520198 0.050495002 -0.12649862 -0.021136872 -0.021739941 0.10228581
-0.0071380106 0.095859475 0.07263499 0.057644784 0.006001117 -0.6297803 -0.030853521 0.20797879
0.6032375 -0.00041445158 0.056997713 -0.08150063 -0.09545291 -0.13710415 -0.09234065 -0.056838714
-0.05511077 -0.009290679 0.032101516 -0.084356375 -0.053778265 0.04334828 0.12994179 0.19213024
0.13031775 -0.18720952 -0.102798566 0.12441201 0.14172463 0.14375596 0.06954445 -0.13908927
-0.03577699 -0.1702187 -0.029142972 0.0019000398 -0.05080039 -0.29252666 -0.15991469 -0.11607765
-0.2011254 0.19088155 0.10663371 -0.39752892 -0.4624283 -0.74014854 -0.12078053 -0.019423988
-0.08506626 -0.08988939 -0.21610682 -0.10736737 -0.18359356 -0.07681977 -0.07142763 -0.045408614
-0.057819784 -0.03121043 -0.12901755 -0.07203376 0.21001571 0.19009063 -0.05426055 -0.18168546
-0.15634689 0.090132415 0.11642614 -0.077489175 -0.13653374 0.028123897 0.31194106 0.04098431
0.018309426 0.055263434 0.06521757 -0.009399701 -0.0035832536 0.025316447 0.42730087 -0.21708615
-0.34871927 -0.4785712 -1.7888081 -0.03582545 0.00545398 0.029759672 0.044785388 0.10944064
0.0071123512 0.07493266 0.025455588 0.036820095 -0.044519387 0.14943238 0.096574344 0.1335937
0.09748693 0.039982628 0.059777904 -0.022186777 0.13744205 0.07480515 0.03443787 0.12535723
0.049144577 -0.03785093 0.03265635 -0.07629303 -0.0049952953 0.014165403 0.2243092 -0.041552696
-0.39172676 -0.046474155 -0.30712146 -0.041105643 -0.047740895 -0.12717733 0.06432225 0.25050166
-0.0706665 0.080620214 0.08909802 0.06511607 -0.046003293 0.056875832 -0.1487951 0.011515416
-0.09981423 0.21385695 -0.06375188 -0.06391237 0.14410883 -0.14325187 -0.018636148 -0.40469515
0.100879766 0.03784284 -0.34552738 0.076561406 -0.19716966 -0.30757415 0.14531597 0.08364124
00000000: 0f29 6b3e 757e d0bc 2ddb 57be 99cc 09bf
00000010: df6c a2bf df59 a7bd 7ec9 603d d940 833d
00000020: 0d38 403e ec88 2c3e 6979 74be 76f6 5bbd
00000030: 96c5 5fbd d996 c23d 91a3 91bc 2a00 833c
00000040: ce87 cbbb a9dd 6c3d aed8 db3d 3692 ac3d
00000050: 027d bbbc bcc0 513e 1f80 293b f552 493e
00000060: 2764 a33d d8c6 86bd a1ea 493d 51ae 4d3d
00000070: d71e 8e3c 1ae3 12bd 061d 403d eb60 263d
00000080: c0dc 94bc 3b5e 14be a69a 8bbe 0ed0 e7bb
00000090: d2e9 88bb 05a0 8f3e d18b b43d 8bfe bd3b
000000a0: ac92 4cbe 954b debe 7d53 573d 9823 833d
000000b0: fd38 d2be e547 0cbe dd0a 963e f60b 833d
000000c0: e5dd 0ebe be1c c13d d2d1 ac3d b4a8 34bd
000000d0: 9de8 373e 617b b63c 49a2 c4bd 685b ec3c
000000e0: f9be f43d ebd8 93bd f67c 2bbe 1fb6 0abd
000000f0: 506f e9bc db99 d83d d6d7 273d 6a84 f7bd
00000100: 4aa8 22bd b344 a23d 5597 aebd 6498 5d3d
00000110: ac04 023d cdf6 b73d f8fa e03c f1d2 eabd
00000120: dcea f4bc 7b7f 10bc 56f8 833e 81c7 83bd
00000130: 9b5f 973d 1b80 2abf a4a2 3abd a2ad 01bf
00000140: 7f00 9abe c10f b23e 7041 13bf 9ed9 15bf
00000150: 8935 1c3d 5e5d 3dbe e27a ec3d 2efc 75be
00000160: 8773 473c 98c3 42bd 129d b2bc f884 5e3d
00000170: 95bd 343e 3f00 203d d119 64be 671d 1cbf
00000180: a109 923e 84a0 ffbd c016 f3bd 1902 eabe
00000190: 9296 c13d 98e2 7c3e 9340 afbe 2d88 b6be
000001a0: 6c39 09bd 84d9 4d3b 989f abbe d9d3 4e3d
000001b0: db88 01be 3c27 adbc f617 b2bc 397b d13d
000001c0: f9e5 e9bb f951 c43d a7c1 943d f01c 6c3d
000001d0: 05a5 c43b 4839 21bf 86c0 fcbc 64f8 543e
000001e0: c66d 1a3f c04a d9b9 6f76 693d cde9 a6bd
000001f0: d17c c3bd 0865 0cbe 181d bdbd b6cf 68bd
00000200: d5bb 61bd ef37 18bc e17c 033d 09c3 acbd
00000210: 9946 5cbd f78d 313d 760f 053e cabd 443e
00000220: 0472 053e dab3 3fbe 0e88 d2bd b9cb fe3d
00000230: 4320 113e c334 133e 526d 8e3d 6b6d 0ebe
00000240: e58a 12bd d04d 2ebe 3ebd eebc c20a f93a
00000250: 1214 50bd 0ec6 95be adc0 23be 1eba edbd
00000260: d1f3 4dbe 7476 433e c662 da3d e988 cbbe
00000270: 67c3 ecbe 607a 3dbf c85b f7bd 0e1f 9fbc
00000280: 3837 aebd ee17 b8bd 1b4b 5dbe 6ce3 dbbd
00000290: f3ff 3bbe af53 9dbd a648 92bd 62fe 39bd
000002a0: 70d4 6cbd 04ad ffbc 2d1d 04be 7086 93bd
000002b0: 5c0e 573e 1ea7 423e 4f40 5ebd c10b 3abe
000002c0: 6619 20be 5897 b83d d470 ee3d a5b2 9ebd
000002d0: 80cf 0bbe 1664 e63c bdb6 9f3e 2adf 273d
000002e0: a6fd 953c e95b 623d ca90 853d 3401 1abc
000002f0: 05d5 6abb 7064 cf3c 2ec7 da3e d54b 5ebe
00000300: 558b b2be 4907 f5be aaf7 e4bf b5bd 12bd
00000310: 4db7 b23b 8eca f33c e270 373d 6a22 e03d
00000320: ba0e e93b 4b76 993d 3d88 d03c abd0 163d
00000330: f659 36bd cd04 193e c5c8 c53d c9cc 083e
00000340: 3aa7 c73d d3c4 233d add9 743d 0bc1 b5bc
00000350: 9cbd 0c3e 7133 993d b90e 0d3d a55d 003e
00000360: d34b 493d 9409 1bbd aac2 053d 853f 9cbd
00000370: 93af a3bb 0216 683c 50b1 653e 2933 2abd
00000380: 6990 c8be af5b 3ebd 063f 9dbe 645e 28bd
00000390: f58b 43bd c63a 02be 62bb 833d c141 803e
000003a0: 99b9 90bd 361c a53d 0679 b63d 935b 853d
000003b0: f36d 3cbd a2f6 683d be5d 18be 28ab 3c3c
000003c0: 676b ccbd 51fd 5a3e 5890 82bd 7de4 82bd
000003d0: 4491 133e 9eb0 12be d6aa 98bc 3434 cfbe
000003e0: 0d9a ce3d 1801 1b3d f7e8 b0be 3acc 9c3d
000003f0: d8e6 49be 5c7a 9dbe b6cd 143e 194c ab3d

input_layer.bias f4 [64]
0.16538952 -0.040615696 -0.111124516 -0.0807819 0.10339111 0.06996372 -0.12334188 0.07121642
0.036610093 -0.16759829 0.21429048 0.19075145 0.096933305 0.09147654 -0.04648292 -0.08093606
0.0237612 -0.033427164 -0.0050163995 -0.1751678 -0.09054942 0.09216235 0.09537274 -0.04755906
-0.13504125 0.17986123 -0.005207723 -0.112297155 0.08312514 0.09006188 -0.12508672 -0.22195393
0.12281564 0.028146038 -0.18783079 0.104949825 -0.09406527 0.013053041 0.013031153 -0.19163081
-0.1708548 -0.12024514 -0.09207217 0.30229768 0.02117349 -0.07948354 0.060422644 -0.064440474
-0.15162559 0.0055933073 -0.1773888 0.07334351 0.029260175 -0.045285556 -0.14316587 -0.026163269
0.0769495 -0.036617592 -0.06698922 -0.112773985 -0.007781526 0.043019 -0.0033773545 -0.025061203
00000000: df5b 293e a55c 26bd 4095 e3bd fb70 a5bd
00000010: b8be d33d 2449 8f3d ab9a fcbd ead9 913d
00000020: 77f4 153d e39e 2bbe f76e 5b3e 5954 433e
00000030: f884 c63d 0d58 bb3d e064 3ebd cec1 a5bd
00000040: d9a6 c23c ecea 08bd 9c60 a4bb 305f 33be
00000050: f971 b9bd 9dbf bc3d c852 c33d 4acd 42bd
00000060: 4148 0abe 8b2d 383e 8ca5 aabb 0dfc e5bd
00000070: 833d aa3d 5d72 b83d bc16 00be e447 63be
00000080: c486 fb3d 8592 e63c b756 40be efef d63d
00000090: 4ba5 c0bd 6cdc 553c 9e80 553c de3a 44be
000000a0: 90f4 2ebe 1543 f6bd 5590 bcbd c3c6 9a3e
000000b0: 0774 ad3c 44c8 a2bd bc7d 773d 5ef9 83bd
000000c0: bd43 1bbe 1048 b73b 69a5 35be 1f35 963d
000000d0: 09b3 ef3c 597d 39bd 139a 12be 5a54 d6bc
000000e0: b397 9d3d 54fc 15bd a531 89bd 0cf6 e6bd
000000f0: 2cfc febb b134 303d 9b56 5dbb 274d cdbc

hidden_layers.0.weight f4 [64, 64]
0.005559766 -0.004179571 0.4535006 0.0047986316 -0.13313018 -0.066696614 -0.093486875 -0.0034744754
0.17278266 0.12930436 -0.04162813 -0.16770115 -0.20630547 0.10431462 0.023111124 0.048153214
0.02192317 -0.14607666 0.31697184 -0.112242155 0.03397236 -0.6118285 0.14245306 -0.19624881
-0.028491026 -0.01733103 0.2354508 -0.39304867 0.035645694 0.1349642 -0.10959282 0.07008296
0.2515926 0.16350551 -0.230844 0.057207722 -0.18201545 0.28259847 0.19187969 -0.16182262
0.011825154 -0.205505 0.553089 -0.14469016 0.1345786 -0.21935533 -0.22434565 0.038311772
-0.055956025 -0.18173717 -0.14641398 0.08042747 0.07251334 -0.0066896607 -0.15090202 -0.11647261
-0.120825894 0.020069769 -0.30331305 -0.034235843 0.008063696 0.2767094 0.025497518 -0.4766702
0.04508512 0.09952248 -0.10099298 -0.09801043 0.017388565 0.2072778 -0.1298645 0.027166534
0.02646004 -0.28807685 -0.036260247 0.21737483 0.022901472 0.23438151 -0.13974959 -0.072491616
0.13410456 0.113901086 -0.21475515 0.015302465 0.15105283 -0.24655616 0.116009966 -0.30734304
-0.22456531 -0.016949207 -0.022773901 -0.14356682 -0.040872958 0.021766031 0.23428519 0.17947939
-0.0389681 -0.16170004 0.23401175 -0.2582161 -0.0010388813 0.044956513 -0.15686265 0.030452892
-0.09057064 0.22080491 -0.023823898 -0.06154498 -0.081249475 -0.048103023 -0.05181527 0.12689261
-0.009309968 -0.06103651 -0.028371172 0.010061251 -0.14608124 -0.40101063 0.063701004 0.020152457
-0.11720039 0.23604263 0.105094306 -0.15128699 -0.2763416 0.040371552 -0.04950475 0.008673849
-0.12431616 0.020979224 -0.14124347 0.12916158 -0.18285224 0.011614964 -0.18588495 0.08052683
0.17028701 -0.05847852 0.043183066 -0.05398987 0.10293073 -0.04985628 0.03809692 -0.10303205
-0.10188936 -0.023999965 0.12850563 -0.12643088 -0.3424573 0.048759736 -0.14790876 -0.039016344
-0.028542046 0.42210972 0.13973102 0.18687908 0.1005353 0.43178767 0.086669095 0.18123761
0.068246566 -0.06263295 -0.044158157 0.26352602 0.03365702 0.04724122 0.13940313 -0.12833579
0.118051685 0.15261424 0.054747593 -0.1976852 0.04008707 -0.010434285 0.14927275 -0.20586488
0.03322352 0.03830656 -0.11434253 0.08492954 -0.09315386 -0.088858545 -0.27955842 0.05813455
-0.38482156 -0.20432685 0.50028986 0.16816153 -0.25955203 0.07096539 -0.24811935 -0.0773472
-0.16550669 -0.1504424 0.17142281 -0.11741293 0.16206928 -0.055235583 -0.18997934 -0.019005673
-0.04673451 -0.1632401 0.09058684 0.033676434 0.00017785 0.11050066 0.09744681 -0.16636771
-0.2944635 0.08549445 -0.12575783 -0.14440128 0.04516085 0.14671646 0.06358526 -0.10103858
-0.08908862 0.3811068 0.006203856 0.108393356 0.18173409 -0.47628537 0.18716699 -0.090881616
-0.070807174 0.065930694 0.24408574 0.26374143 0.009912918 0.02689251 -0.063671485 -0.059135515
0.018198987 0.10064961 -0.24003008 -0.12476677 -0.01751905 -0.033420827 -0.07856426 -0.1771646
0.04613537 0.080551915 -0.15642644 0.13817632 0.030890161 -0.086335525 -0.29469624 -0.023429574
-0.20688374 -0.016342578 -0.57128745 0.049365718 -0.23208655 9.038104e-05 -0.11963837 -0.08499126
00000000: b32e b63b c8f4 88bb 3b31 e83e d73d 9d3b
00000010: 4753 08be 3c98 88bd 0c76 bfbd 06b4 63bb
00000020: f0ed 303e 5d68 043e 4282 2abd dab9 2bbe
00000030: be41 53be e7a2 d53d 8a53 bd3c 4e3c 453d
00000040: 3898 b33c 1f95 15be 224a a23e 37df e5bd
00000050: 9a26 0b3d cba0 1cbf 37df 113e 73f5 48be
00000060: 0366 e9bc cef9 8dbc 041a 713e ad3d c9be
00000070: 3801 123d 0e34 0a3e 3372 e0bd a887 8f3d
00000080: bfd0 803e fd6d 273e 5f62 6cbe a552 6a3d
00000090: 4262 3abe bfb0 903e 1c7c 443e d4b4 25be
000000a0: 4abe 413c e76f 52be 3e97 0d3f a829 14be
000000b0: f9ce 093e af9e 60be deba 65be ceec 1c3d
000000c0: 2532 65bd 4f19 3abe 8ced 15be 28b7 a43d
000000d0: e081 943d f134 dbbb 0f86 1abe 3189 eebd
000000e0: 9173 f7bd 5b69 a43c d94b 9bbe e23a 0cbd
000000f0: 981d 043c dbac 8d3e 2ce0 d03c 1e0e f4be
00000100: 2dab 383d 71d2 cb3d 68d5 cebd b1b9 c8bd
00000110: 7772 8e3c a240 543e 33fb 04be 5a8c de3c
00000120: bac2 d83c cf7e 93be a085 14bd 8297 5e3e
00000130: de9b bb3c b501 703e 841a 0fbe 7c76 94bd
00000140: b552 093e f944 e93d c6e8 5bbe 31b7 7a3c
00000150: 98ad 1a3e 3879 7cbe a296 ed3d 115c 9dbe
00000160: 73f4 65be 10d9 8abc 5590 babc 2e03 13be
00000170: 676a 27bd ad4e b23c 75e8 6f3e 72c9 373e
00000180: 049d 1fbd b294 25be c7a0 6f3e e734 84be
00000190: 122b 88ba 5224 383d 9aa0 20be 5878 f93c
000001a0: 1a7d b9bd af1a 623e 562a c3bc 9716 7cbd
000001b0: 2066 a6bd ad07 45bd 403c 54bd 23f0 013e
000001c0: d688 18bc 6b01 7abd a96a e8bc f2d7 243c
000001d0: 5296 15be 4451 cdbe ac75 823d c416 a53c
000001e0: c206 f0bd 29b5 713e af3b d73d faea 1abe
000001f0: a57c 8dbe a45c 253d 7ec5 4abd c21c 0e3c
00000200: 7999 febd 9fdc ab3c 21a2 10be ef42 043e
00000210: 9e3d 3bbe b14c 3e3c a058 3ebe 40eb a43d
00000220: b85f 2e3e 2c87 6fbd bae0 303d 7b24 5dbd
00000230: 59cd d23d 1936 4cbd 840b 1c3d 7802 d3bd
00000240: 5eab d0bd 939b c4bc fb96 033e 1977 01be
00000250: 9056 afbe 4ab8 473d 6575 17be 9acf 1fbd
00000260: 02d1 e9bc c41e d83e a615 0f3e 3b5d 3f3e
00000270: 74e5 cd3d 4613 dd3e 917f b13d 5a96 393e
00000280: dbc4 8b3d b445 80bd 2fdf 34bd e2ec 863e
00000290: f2db 093d 0280 413d b2bf 0e3e 756a 03be
000002a0: 15c5 f13d e846 1c3e 033f 603d fd6d 4abe
000002b0: 5732 243d 90f4 2abc f5da 183e 3ece 52be
000002c0: 6315 083d 57e7 1c3d 6b2c eabd 8aef ad3d
000002d0: 73c7 bebd 78fb b5bd 4822 8fbe 7e1e 6e3d
000002e0: 5507 c5be 0f3b 51be ff12 003f 8932 2c3e
000002f0: 01e4 84be 4d56 913d 0013 7ebe 3568 9ebd
00000300: 967a 29be 930d 1abe 7689 2f3e 3176 f0bd
00000310: 7df5 253e b53e 62bd f289 42be c9b1 9bbc
00000320: b06c 3fbd 6a28 27be 9885 b93d 4df0 093d
00000330: 3f7d 3a39 2c4e e23d 3192 c73d 4c5c 2abe
00000340: ebc3 96be b717 af3d a9c6 00be eedd 13be
00000350: 95fa 383d d73c 163e fd38 823d 51ed cebd
00000360: 1874 b6bd 6e20 c33e b749 cb3b 56fd dd3d
00000370: 8018 3a3e addb f3be b4a8 3f3e 2420 babd
00000380: 5a03 91bd ac06 873d 9df1 793e 1e09 873e
00000390: cb69 223c ae4d dc3c 3266 82bd 1538 72bd
000003a0: 0b16 953c 6221 ce3d 72ca 75be b885 ffbd
000003b0: 1c84 8fbc 47e4 08bd 4ce6 a0bd a36a 35be
000003c0: 71f8 3c3d 67f8 a43d 412e 20be 187e 0d3e
000003d0: 5d0d fd3c aed0 b0bd 6de2 96be 61ef bfbc
000003e0: 55d9 53be dfe0 85bc e53f 12bf b533 4a3d
000003f0: 19a8 6dbe f48a bd38 f604 f5bd e60f aebd

hidden_layers.0.bias f4 [64]
-0.03883873 0.01770257 0.055339232 0.057539493 0.09968807 -0.22715445 -0.060345594 -0.00085177703
0.16764408 0.44808993 0.0060005896 0.4149718 0.30979568 -0.0061848415 -0.098279886 0.07891695
0.010973339 -0.12041473 -0.0872036 0.2006471 0.31265604 0.23050888 -0.12996794 -0.14334323
-0.20065789 -0.09875607 0.040181845 -0.12484164 -0.10584095 0.28744856 0.05683841 -0.04384937
0.016939124 0.115444265 0.042260118 -0.055585604 -0.044739753 -0.17113262 0.27604342 0.010993598
-0.005957086 0.5113819 0.23269579 -0.01705978 0.058204744 -0.038752936 0.29909495 -0.0893906
0.05993008 -0.13837819 -0.05078746 0.31873643 -0.038824815 -0.117626786 -0.013744769 -0.14201652
-0.18444684 -0.13322346 0.07425462 -0.124831825 0.018972946 0.16132386 -0.0145331295 -0.08920438
00000000: 5c15 1fbd fb04 913c 64ab 623d 88ae 6b3d
00000010: 4229 cc3d 2d9b 68be f12c 77bd ca49 5fba
00000020: e4aa 2b3e 0b6c e53e 98a0 c43b 2f77 d43e
00000030: 8a9d 9e3e 36aa cabb f746 c9bd 369f a13d
00000040: 85c9 333c ff9b f6bd cd97 b2bd 6f76 4d3e
00000050: 7414 a03e 850a 6c3e 5116 05be 91c8 12be
00000060: 4379 4dbe 9f40 cabd b895 243d f9ac ffbd
00000070: 24c3 d8bd 752c 933e 65cf 683d 669b 33bd
00000080: ebc3 8a3c 0b6e ec3d f218 2d3d bbad 63bd
00000090: 0841 37bd 643d 2fbe 9055 8d3e 7e1e 343c
000000a0: a933 c3bb ede9 023f ce47 6e3e f4c0 8bbc
000000b0: 1968 6e3d 66bb 1ebd f922 993e 6b12 b7bd
000000c0: 3e79 753d 03b3 0dbe 8306 50bd 6c31 a33e
000000d0: c506 1fbd 50e6 f0bd bd31 61bc c76c 11be
000000e0: a2df 3cbe bb6b 08be ce12 983d d4a7 ffbd
000000f0: 276d 9b3c 1532 253e 5d1c 6ebc c9b0 b6bd

output_layer.weight f4 [4, 64]
-0.33626798 0.20475934 0.16646609 0.08288945 0.4648243 -0.1700249 0.33284232 -0.35803077
0.12928039 0.13886344 0.07549409 0.22933641 0.101333484 0.040885616 -0.015609802 0.25311574
0.058546215 0.04647495 0.02044965 0.18530919 0.1471077 0.34629756 -0.10155391 -0.33502793
-0.25931215 -0.38578805 -0.28624886 -0.31563067 0.035803054 0.12437523 -0.102123134 0.07720473
0.29237092 0.18228573 0.056125097 -0.24132384 0.12561482 -0.08990412 0.19886887 0.35331014
0.3055288 0.1582396 0.14368436 -0.030881945 0.04311158 -0.004526127 0.21566808 -0.2711954
0.047544733 0.26409087 -0.098014906 0.38961902 0.31737697 -0.23618323 0.055692337 -0.2293716
-0.30653977 -0.06049328 0.3248811 -0.120213725 -0.19012111 0.2018643 -0.110282905 0.05353538
0.23142928 0.1371329 0.24100968 0.16060466 0.34300175 -0.21654044 0.5339315 -0.3487398
0.069037326 0.12631027 0.10310455 0.17457102 0.009776446 0.23782378 -0.020247638 0.45626754
-0.07640584 -0.030005384 -0.19364488 0.16536708 0.1514177 0.27072412 -0.11301126 -0.24400182
-0.21767901 -0.18673167 0.08424612 -0.23063548 -0.05965348 0.18001465 0.06146852 0.13143611
0.27940622 0.06779144 0.07057526 -0.3699678 0.14734033 -0.10068202 0.24669518 0.4800909
0.31530306 0.1755334 0.11070911 0.10320712 0.04785275 -0.10287768 0.18952106 -0.39898652
0.1994896 0.13679413 -0.2550819 0.25840008 0.41188812 -0.11186262 0.1358927 -0.13916706
-0.12510192 -0.18179035 0.2762776 -0.083284274 -0.25591645 0.12719673 -0.24850751 0.24641086
-0.2504347 0.14712442 0.42924953 0.60015523 0.4502311 -0.35678586 0.7718447 -0.13888136
0.0722459 0.16775154 0.06868842 0.20383124 0.19827941 -0.34478363 -0.043290254 0.5854437
-0.16639696 0.04379213 -0.20057015 0.087697305 0.08677634 0.22737384 -0.26583424 -0.19619502
-0.036121476 -0.33343524 -0.16734464 -0.3936331 0.10393019 0.18375838 0.101914085 -0.01585817
0.036834456 0.14467554 0.23352885 0.06518328 0.020372836 -0.1707381 0.27015066 0.12598415
0.016579578 0.16969271 0.120018125 0.30630857 0.12299423 -0.037152585 0.15046743 0.2133173
0.1449049 0.17592384 0.15375495 0.29480574 0.047288075 -0.008655118 0.4012362 -0.026515996
-0.13265622 -0.33209446 0.11018482 -0.010288702 -0.1549386 0.11067222 -0.30237395 -0.21493596
-0.47030112 0.28588885 0.07298339 0.084440924 0.2887366 -0.1139692 -0.12754868 -0.13155554
0.13603991 0.21982254 0.28960595 0.12120303 0.15242125 0.1575655 0.05926323 -0.00081687834
0.64425564 -0.017130436 -0.27953902 0.14905849 0.07400185 0.30556366 -0.054020528 -0.19982755
-0.43158022 -0.17022215 0.017044734 -0.058631353 0.09523037 0.01974081 0.09187919 0.18212183
-0.076526605 0.1637319 0.059240885 -0.06282563 0.17385691 -0.13108754 0.282051 0.4402441
-0.118663356 0.25805068 0.22249952 -0.058391824 0.24318238 -0.24045777 0.1651573 -0.16334887
0.252483 -0.20286417 0.15704228 0.23773474 -0.032389823 -0.18378498 0.32954073 0.059420325
-0.08826765 -0.25057372 0.2993479 -0.4603426 -0.38746497 0.14579017 -0.21167651 0.06443188
00000000: 512b acbe 6fac 513e 1676 2a3e f2c1 a93d
00000010: 73fd ed3e 021b 2ebe 4f6a aa3e cf4f b7be
00000020: 1462 043e 3832 0e3e a59c 9a3d 2ad7 6a3e
00000030: ee87 cf3d ad77 273d 41c0 7fbc 6398 813e
00000040: 28ce 6f3d 845c 3e3d 0686 a73c b1c1 3d3e
00000050: 67a3 163e ea4d b13e 7ffb cfbd c888 abbe
00000060: 90c4 84be 0386 c5be 368f 92be 589a a1be
00000070: 39a6 123d 71b8 fe3d ef25 d1bd 831d 9e3d
00000080: a4b1 953e 1ca9 3a3e 6ee3 653d 991d 77be
00000090: 2ca1 003e a71f b8bd 48a4 4b3e 11e5 b43e
000000a0: 456e 9c3e 9009 223e fe21 133e 22fc fcbc
000000b0: c595 303d e84f 94bb 18d8 5c3e 20da 8abe
000000c0: 44be 423d eb36 873e 0abc c8bd 257c c73e
000000d0: 3c7f a23e 04da 71be a61d 643d 64e0 6abe
000000e0: c8f2 9cbe cdc7 77bd d156 a63e 9d32 f6bd
000000f0: 1caf 42be 84b5 4e3e 01dc e1bd ea47 5b3d
00000100: ccfb 6c3e 916c 0c3e 3ecb 763e 8c75 243e
00000110: ed9d af3e c7bc 5dbe bcaf 083f 068e b2be
00000120: 7163 8d3d 7b57 013e 7a28 d33d bfc2 323e
00000130: 632d 203c 1488 733e 60de a5bc e69b e93e
00000140: aa7a 9cbd dacd f5bc d84a 46be fd55 293e
00000150: 3e0d 1b3e 5a9c 8a3e 7372 e7bd 9ddb 79be
00000160: 3fe7 5ebe 9636 3fbe 3b89 ac3d b52b 6cbe
00000170: 3557 74bd c355 383e 6ac6 7b3d 3097 063e
00000180: 550e 8f3e 3dd6 8a3d c389 903d 6b6c bdbe
00000190: 62e0 163e 6032 cebd a99d 7c3e 79ce f53e
000001a0: 676f a13e 07bf 333e 75bb e23d 415e d33d
000001b0: 3f01 443d 88b1 d2bd cf11 423e f647 ccbe
000001c0: 0047 4c3e c313 0c3e 189a 82be 044d 843e
000001d0: 00e3 d23e 3b18 e5bd 7527 0b3e cf81 0ebe
000001e0: b81a 00be 4027 3abe 4274 8d3e f290 aabd
000001f0: 7b07 83be dc3f 023e c178 7ebe 2153 7c3e
00000200: fa38 80be c9a7 163e 98c6 db3e c6a3 193f
00000210: b184 e63e a3ac b6be 9d97 453f ea36 0ebe
00000220: a9f5 933d 0fc7 2b3e 84ac 8c3d 23b9 503e
00000230: c209 4b3e 7b87 b0be 1f51 31bd a3df 153f
00000240: f763 2abe 605f 333d 4362 4dbe a59a b33d
00000250: cbb7 b13d b0d4 683e 6d1b 88be 59e7 48be
00000260: 1df4 13bd 06b8 aabe 655c 2bbe 478a c9be
00000270: 5ad9 d43d 282b 3c3e 55b8 d03d fee8 81bc
00000280: badf 163d d325 143e 3022 6f3e d07e 853d
00000290: efe4 a63c f8d5 2ebe 3051 8a3e fd01 013e
000002a0: e5d1 873c edc3 2d3e 10cc f53d 7ad4 9c3e
000002b0: 66e4 fb3d 4f2d 18bd 2214 1a3e da6f 5a3e
000002c0: f361 143e 6125 343e f071 1d3e c7f0 963e
000002d0: 24b1 413d 32ce 0dbc d56e cd3e 1338 d9bc
000002e0: 08d7 07be 4908 aabe 94a8 e13d f291 28bc
000002f0: 39a8 1ebe 1ea8 e23d c2d0 9abe 2c18 5cbe
00000300: 4fcb f0be 0660 923e 5178 953d 5def ac3d
00000310: 49d5 933e af68 e9bd 1f9c 02be 7fb6 06be
00000320: 0c4e 0b3e 2919 613e 3b47 943e 4b39 f83d
00000330: 5114 1c3e da58 213e 00be 723d c723 56ba
00000340: f0ed 243f 2155 8cbc bd1f 8fbe caa2 183e
00000350: 488e 973d d772 9c3e a144 5dbd 989f 4cbe
00000360: 15f8 dcbe b74e 2ebe 66a1 8b3c 6e27 70bd
00000370: 2408 c33d 7bb7 a13c 282b bc3d 257e 3a3e
00000380: fbb9 9cbd 56a9 273e 92a6 723d b9aa 80bd
00000390: 8c07 323e d03b 06be fd68 903e ad67 e13e
000003a0: c605 f3bd 381f 843e ead6 633e 442c 6fbd
000003b0: cd04 793e 903a 76be ff1e 293e ed44 27be
000003c0: 7445 813e a0bb 4fbe b1cf 203e bc70 733e
000003d0: 31ab 04bd 2132 3cbe 90b9 a83e ba62 733d
000003e0: abc5 b4bd 334b 80be 2144 993e 06b2 ebbe
000003f0: cf61 c6be 054a 153e bac1 58be ddf4 833d

output_layer.bias f4 [4]
0.27131155 0.28690666 0.18825702 0.1968442
00000000: 59e9 8a3e 6ee5 923e 73c6 403e 8791 493e
