p1_navigation/trained_results.pth (torch, 29791 bytes, 6 tensors)

input_layer.weight f4 [64, 37]
000000 d8 e5 70 3e 61 71 09 bc e7 8d 9f be 17 c6 e4 be
       0.23525178 -0.008388848 -0.3116295 -0.4468238
000010 11 46 b2 bf 6a 6d 89 bd 4e 85 94 3d 68 c0 16 3d
       -1.3927633 -0.06710322 0.07251988 0.036804587
000020 ca 73 e3 3d 6c 04 43 3e 13 85 60 be 53 81 c5 bc
       0.111060694 0.19044656 -0.21925764 -0.024109518
000030 cd cd 67 bd 81 26 5e bd ba 02 c4 3b c4 1d 83 bd
       -0.05659275 -0.05423594 0.0059817703 -0.06402162
000040 58 a3 07 3d 16 91 f1 3d cb ed a9 3d 77 3a 85 3e
       0.03311476 0.11795251 0.082973085 0.26021168
000050 c7 f4 f9 3a 8f ee e9 3d ff 96 2e bb e0 26 81 3e
       0.0019070142 0.114224546 -0.0026640294 0.25224972
000060 e7 40 28 3e bc c7 01 be b2 92 f9 3c 45 26 3a 3d
       0.16431008 -0.12673849 0.030465458 0.045446653
000070 df 3a 51 3c 78 76 87 3b c4 fe 9b bd 67 d3 84 3d
       0.012770384 0.0041339956 -0.07616952 0.06485634
000080 02 f6 9f 3c 2a d4 f4 bd 57 4f 97 be 8b a3 b8 ba
       0.019526485 -0.119545296 -0.2955272 -0.0014086826
000090 8d 34 10 bc 92 bc 94 3e 68 d5 f2 3d 42 8d b9 bc
       -0.008801592 0.29050118 0.1185711 -0.022650365
0000a0 ff 3c 67 be 35 14 d2 be bf fc ff bc e3 03 12 be
       -0.22581862 -0.41031042 -0.031248448 -0.14259295
0000b0 2a 8c f7 bd 33 1d 87 3d e9 15 62 3e 01 ef 06 3e
       -0.12087281 0.06597366 0.2207867 0.1317711
0000c0 50 68 8b bd 1e f2 8a bc fd 44 0e 3d bb b3 ba 3c
       -0.068070054 -0.016961154 0.03473376 0.02279078
0000d0 d1 7d 7a 3e 5e cc a0 3c 3f 82 4e bd e3 e7 60 be
       0.24462058 0.0196287 -0.05041718 -0.21963458
0000e0 0e bd 8f 3c 07 4e db bd 40 74 ca bb 60 59 48 be
       0.017546203 -0.10708242 -0.006178409 -0.19565344
0000f0 c3 7a 8b 3d e2 41 1d 3e 3c f9 81 bc a3 14 ce bd
       0.06810524 0.15357164 -0.015865915 -0.1006253
000100 b8 dc 49 3d fd 88 74 3d 40 96 63 bd 3e 51 3f bc
       0.04928276 0.059700955 -0.05556321 -0.0116770845
000110 50 f3 b6 3d ee e8 b2 3d 34 bb fc 3d 58 42 c5 bc
       0.08933127 0.08735834 0.12340394 -0.024079487
000120 3c 0e 05 bd d0 50 90 bb 7a be 80 3c 29 b3 a4 bd
       -0.032484278 -0.004404165 0.015715826 -0.080419846
000130 78 d0 27 3e 2d b3 f2 be 01 1e 86 be d9 35 08 bf
       0.16388118 -0.47402325 -0.26194766 -0.53207165
000140 23 ed 9a be ea 51 a0 3e fb d2 d4 be 57 2d 86 bf
       -0.30259046 0.31312495 -0.41567215 -1.0482587
000150 5e 7d e9 3c e7 ad 71 bd d2 e6 53 be 65 0c 7a bd
       0.028502163 -0.059003737 -0.2069352 -0.061046977
000160 4f 39 d4 3c 7d 67 1c be fd bc 47 be 3f e6 57 3e
       0.025906233 -0.15273853 -0.19505687 0.21083926
000170 7e 9a d3 bd 1e 5e 3f 3d 8b b4 c7 bd 01 c7 5e bf
       -0.103322014 0.046720617 -0.09751233 -0.87022406
000180 44 64 c8 3d be 79 99 3d bb f2 18 3e 04 a7 09 bf
       0.09784749 0.074939236 0.14936344 -0.5377047
000190 45 3c 66 be e8 d2 4f 3e 78 27 44 bd 98 bc 16 bf
       -0.22483929 0.20295298 -0.047889203 -0.5888152
0001a0 b4 32 03 3e 2b bf fd bd b3 1e ac be d4 3c 6c be
       0.1281231 -0.12389978 -0.33617172 -0.23070079
0001b0 be 35 ed 39 7a a4 48 bd cc 12 14 bd 52 19 b7 3d
       0.00045244204 -0.048984982 -0.03615074 0.08940376
0001c0 cc 36 2b bd 5a 7b b2 3d 4b 28 d9 3d e3 5a d6 3d
       -0.041800305 0.08714934 0.106033884 0.10466554
0001d0 74 ac 27 bc 2d ca 13 bf be 3b 2a bc 45 b8 d5 3d
       -0.010233987 -0.5773037 -0.01039022 0.10435537
0001e0 20 d9 1e 3f 8e d3 8b bd de bd a8 3d fd ce 01 3c
       0.62050056 -0.0682746 0.08239339 0.007922885
0001f0 80 0a 52 be 64 8c 71 bd 83 c0 70 bd 6f c5 0d bd
       -0.20511818 -0.058971778 -0.058777343 -0.034612115
000200 49 bf 98 bd 85 21 c0 bd b2 75 e1 bc ec 44 d4 bb
       -0.0745836 -0.09381393 -0.027521942 -0.0064779427
000210 8a 42 0c be e0 21 3d bd 82 cb 35 3e 43 83 29 3e
       -0.13697258 -0.046174884 0.17753413 0.16553979
000220 46 d9 bf 3d bb 79 1c be b4 82 c2 bd 6b fd d4 3d
       0.093676135 -0.15280811 -0.09497586 0.10399898
000230 84 aa 1e 3e 1c a1 d9 3d 1d c6 af 3d cc 42 54 be
       0.15494734 0.10626432 0.08582709 -0.20728606
000240 f2 58 09 3d ba 20 34 be 9a 8f a7 bc 88 0e 26 bb
       0.03353209 -0.17590609 -0.020454217 -0.002533825
000250 96 02 f2 bd 2a 2b a4 bd 7a f5 46 be b9 4b 84 be
       -0.118168995 -0.080160454 -0.1942958 -0.25839022
000260 35 4e 1b be 52 96 4d 3e e5 01 ff bc 43 c1 28 be
       -0.15166552 0.20076874 -0.031128833 -0.16479973
000270 fb 10 ae be aa a6 30 bf e1 40 9f bd 02 7c 48 bb
       -0.3399733 -0.6900431 -0.077760465 -0.0030591493
000280 b3 fc 12 be 4b dc 91 bd 8e 01 e0 bd 8c a8 cc bd
       -0.1435421 -0.07122096 -0.109377965 -0.09993085
000290 4a e8 43 bd 4c 6f d0 bd 99 17 e5 bd f0 a7 0e bd
       -0.04782895 -0.10177478 -0.111861415 -0.034828126
0002a0 6f b2 07 bd 45 20 bc bd 7f f6 ed bd c6 3f 9e bc
       -0.033129152 -0.091858424 -0.11619281 -0.019317519
0002b0 ac 5c 0e 3e 05 66 22 3e 7e ec d2 bd 8d ea 9f bd
       0.13902539 0.1585923 -0.102990136 -0.07808409
0002c0 c8 f3 b7 bd a7 b6 4d bd 59 a8 4e 3e ea b8 ad be
       -0.089820445 -0.05022302 0.20181407 -0.3393014
0002d0 f8 3b 2f be ef 38 2f 3e 03 8c b9 3e 1c ff 77 3d
       -0.1711272 0.17111562 0.36239633 0.060546026
0002e0 fa 16 80 3c 3c d7 85 3d 3d 8d 97 3c 16 2e 60 3b
       0.015635956 0.06535193 0.018499965 0.0034207157
0002f0 d0 70 04 bd e0 cf 8d bb 35 e9 ca 3e 10 b3 99 be
       -0.03233415 -0.004327759 0.39631048 -0.30019426
000300 b1 4d cb be 7d 8d 90 be 52 01 e9 bf 19 3b 0c bd
       -0.3970771 -0.28232947 -1.8203528 -0.034236047
000310 5e 52 cc 3c 09 d1 d4 3b 28 be e7 bc 00 5f 0e 3e
       0.02494162 0.0064946455 -0.028288916 0.13903427
000320 ec 61 df 3c fe 6e 66 3d 3f f4 f4 bb 58 b2 60 ba
       0.027268372 0.056258194 -0.0074754055 -0.0008571497
000330 a3 28 47 bc fa 5e 14 3e 3b 51 7e 3d 6d fd cc 3d
       -0.012155685 0.14489356 0.062089186 0.10009275
000340 0f c2 0e 3e 62 0e cc 3d d6 ea 44 3d 5d 6a 24 bc
       0.13941215 0.09963681 0.04807552 -0.010035125
000350 3f 31 b4 3d 9e 00 59 3d fa a4 fd 3b 7f d5 dc 3d
       0.087984554 0.052979104 0.007740614 0.10782909
000360 0d 23 c0 bc c5 f2 d4 bc e9 7d 8f 3d 30 81 c8 bd
       -0.023454214 -0.025994668 0.07006437 -0.097902656
000370 b8 bf 59 bc 5e f6 0a 3c 4f 52 4f 3c 43 52 d7 3c
       -0.013290338 0.00848159 0.012653901 0.026284343
000380 ae 35 04 be 12 c9 ed 3c 87 13 2a be d3 17 19 be
       -0.12911102 0.029026542 -0.16609012 -0.14950494
000390 74 11 a2 bd 0a 50 6e bd 71 ad f1 3d cc 8d 98 3e
       -0.07913485 -0.0581818 0.118006594 0.29795682
0003a0 a1 a2 80 bd 6d 4c 4d 3e 2a e2 e4 3d d1 ed b3 bd
       -0.06281019 0.20048685 0.1117595 -0.08785594
0003b0 14 e1 4f 3c 11 3f c0 bb 19 2d 4a bd e9 15 6e bb
       0.01268794 -0.005866893 -0.049359415 -0.0036328977
0003c0 29 c9 88 3c aa a4 2b 3e 97 53 0b bd 37 2f e4 bd
       0.016697483 0.16762033 -0.034015264 -0.11141818
0003d0 90 81 42 3e 45 86 f2 bd 3f 13 f2 3d ca 57 a5 be
       0.18994737 -0.11842016 0.11820077 -0.3229354
0003e0 33 41 a9 3d 38 16 9d 3d 24 2f 7e be 7e 74 1a 3e
       0.08264389 0.076702535 -0.2482267 0.150835
0003f0 40 5a 7a be dc 2b 3b be 5f 02 cf 3d 3c 63 24 3e
       -0.2444849 -0.1827845 0.10107874 0.1605348

input_layer.bias f4 [64]
000000 29 79 0d 3e 47 53 07 bd da f8 f9 bd 71 41 c4 bd
       0.1381575 -0.033038404 -0.12205668 -0.095827945
000010 fb 0e da 3d 0c 9f 3e 3d 9f 72 92 bd 52 02 5a 3d
       0.106473885 0.046538398 -0.071507685 0.05322487
000020 24 bd 4f 3d c9 42 3f be 88 92 65 3e f7 95 43 3e
       0.050717488 -0.1867782 0.22419178 0.19100176
000030 10 a5 c9 3d c6 5e da 3d 83 05 be bd 8e b7 98 bd
       0.09845936 0.10662608 -0.09278395 -0.07456885
000040 a4 af e3 3c 00 d6 8d bd e2 ea 05 bd 70 45 40 be
       0.027793713 -0.06925583 -0.032694705 -0.18776488
000050 10 2c 16 be 56 df a0 3d 40 eb c9 3d 10 55 b4 bd
       -0.14665246 0.07855098 0.098593235 -0.08805287
000060 be 90 05 be a5 31 36 3e 16 a5 bc bc e8 83 bc bd
       -0.13043496 0.17792375 -0.023027938 -0.092048466
000070 da 89 05 3e 1f ef f1 3d a1 da dc bd d2 99 41 be
       0.13040867 0.11813187 -0.10783888 -0.18906334
000080 e2 32 11 3e 4f b3 79 3c 55 09 26 be d4 f3 b0 3d
       0.14179567 0.015240504 -0.16214497 0.086402565
000090 15 a5 e5 bd e8 b6 b9 3c da 07 ba 3c ef 02 02 be
       -0.112131275 0.022670224 0.022708822 -0.12696432
0000a0 3e 86 1a be aa ae c9 bd b0 a5 b5 bd cd c9 97 3e
       -0.15090272 -0.09847768 -0.08869493 0.2964615
0000b0 0c 54 f4 3c ae 37 16 be 24 1c aa 3c 7f 53 83 bd
       0.029825233 -0.14669678 0.020765372 -0.0641241
0000c0 c8 95 0a be fe e1 cc 3c 18 ed 50 be 39 97 32 3d
       -0.135337 0.025010105 -0.20402944 0.04360125
0000d0 e1 2b 70 3d b2 5c 42 bd e5 66 0b be 82 0b 95 bc
       0.058635596 -0.047451682 -0.1361347 -0.018193964
0000e0 d8 93 9d 3d 0c 59 cc bc 24 f2 a2 bd da 73 c0 bd
       0.076942146 -0.024944805 -0.07956341 -0.09397097
0000f0 11 96 ac bb 6d 83 1f bb 3a 7b 03 3d 76 02 56 b9
       -0.0052669127 -0.002433981 0.03209994 -0.00020409547

hidden_layers.0.weight f4 [64, 64]
000000 2e c2 72 3e a2 33 24 be 43 ee b3 3e 38 0a e7 bd
       0.23706886 -0.16035321 0.35142717 -0.11281246
000010 cf ff 52 bd ad f3 28 be 38 5a a8 be 70 d3 01 3e
       -0.05151349 -0.16499205 -0.3288133 0.12678313
000020 e9 a9 68 3e 26 89 b7 bc 28 ea 8b bd f7 ba 4b be
       0.22721066 -0.022404265 -0.06831771 -0.1989554
000030 0f 14 40 be c0 52 49 3e 71 e0 ab 3d 3b bf da bc
       -0.18757652 0.19660473 0.08392418 -0.026702514
000040 5d 83 9f bd 91 16 e6 bb ba a0 5b bc b4 58 1c 3e
       -0.077887274 -0.007021733 -0.013405019 0.15268213
000050 a8 d5 fc bd 08 88 16 bf 7b c8 1b 3e 08 de b8 be
       -0.12345439 -0.5880132 0.15213196 -0.36106896
000060 42 08 34 bd 2b 88 26 bd 19 31 7b 3e fa 24 89 be
       -0.043953188 -0.040657204 0.24530448 -0.26786023
000070 ba 0c 03 3e c1 51 2f 3e b2 b9 b1 bd 1a c1 b0 3a
       0.12797824 0.1712103 -0.08677997 0.0013485283
000080 7d 06 ad 3e 3a e1 49 3e 52 8f b2 bd ef d1 bf 3b
       0.33794013 0.19714823 -0.087187424 0.0058538835
000090 d9 e6 71 bd a5 ab c9 3e fa f7 6b 3e cf f6 dd bd
       -0.059058044 0.39388767 0.23043814 -0.10838091
0000a0 a0 e0 a2 be 7c f7 0d be 41 85 8b 3e 8f ad 1c be
       -0.31812 -0.13863939 0.27250102 -0.15300582
0000b0 99 94 6c 3d 66 4b 48 be 89 28 81 bd 65 62 e2 3c
       0.0577589 -0.19560012 -0.063065596 0.027634809
0000c0 6c 03 46 be 7c 38 67 be 4c 8c ad be cd c4 54 bd
       -0.19337243 -0.22580141 -0.338961 -0.051945496
0000d0 ad 3f 8a 3c 78 0f f5 3c 05 2d 2e bd 41 19 f9 bc
       0.016876066 0.029914603 -0.042523403 -0.03040755
0000e0 e3 c5 4e be e0 48 81 3c e7 e2 64 be c4 18 4d be
       -0.20192675 0.01578182 -0.22352181 -0.20028979
0000f0 c9 f8 08 be 11 77 ad 3e 32 28 79 be 56 ee 95 be
       -0.13376154 0.33879903 -0.2433174 -0.29283398
000100 d4 f9 95 bd 19 de ba 3c 11 b6 cf 3d 06 4b 01 be
       -0.073230416 0.022810983 0.10142148 -0.12626275
000110 ee 9b 99 bc 17 95 37 3e 92 f6 68 be ba 35 30 3e
       -0.01875111 0.17927967 -0.22750309 0.17207995
000120 bd bf 56 3c 5f 6c 3f be db b7 8b bd 55 99 60 3e
       0.013107237 -0.18693684 -0.06822177 0.21933492
000130 10 04 2e bd 23 ff 7e 3e 19 f1 c3 bd e0 35 5a bd
       -0.042484343 0.24902014 -0.0956747 -0.053274035
000140 3a 89 c8 3d 48 57 a4 3d df 88 f8 bd 83 8b 8d be
       0.09791799 0.0802446 -0.12135481 -0.27645501
000150 90 76 20 3e e1 d3 13 bc 22 ef 85 3d ea 3b 09 bf
       0.15670228 -0.009022684 0.065397516 -0.53607047
000160 7b a6 a8 be f9 54 77 3b 91 7f 1b be 00 8d 4c be
       -0.32939515 0.0037739857 -0.15185381 -0.19975662
000170 8f 1a 61 3d 8c e2 33 bd f6 d1 a8 3e aa 02 c8 3d
       0.05495697 -0.043917224 0.32972687 0.09766133
000180 38 50 39 bd c6 2b 98 bd 0a 90 1a 3e 7f be 76 be
       -0.04524252 -0.07430224 0.15094009 -0.24096106
000190 06 84 88 ba 2c ff 10 be 93 cd 03 3d 2a c7 a9 3c
       -0.0010415323 -0.1415984 0.032178473 0.020724852
0001a0 72 e2 21 3b aa c0 8e 3e 79 55 26 be 24 3b 5f bd
       0.0024701622 0.27881366 -0.16243543 -0.05449976
0001b0 4d e2 70 bc 85 cd c0 3d 93 01 68 be ef a6 19 3e
       -0.014702392 0.094142 -0.2265685 0.15005086
0001c0 b1 d3 38 3c e3 45 18 be 5a 7c d4 bd 54 8a 43 ba
       0.01128094 -0.1487041 -0.10375281 -0.0007459272
0001d0 ba 6e 9a bd 2f b7 f5 be 05 34 d9 3d d5 19 e8 3d
       -0.07540651 -0.4799132 0.10605625 0.11333052
0001e0 df 73 c4 3c f1 70 97 3d 9f f0 61 3d 4d 52 cc bd
       0.023981033 0.07394589 0.055161115 -0.09976635
0001f0 b2 a8 c7 be 91 94 bf bd 23 d6 51 bd 34 b5 2a be
       -0.38995892 -0.09354509 -0.051229607 -0.16670686
000200 88 c9 db bd ef 66 09 bd e1 39 d1 3d ec c3 63 3c
       -0.107317984 -0.03354543 0.10216118 0.013901692
000210 9a 85 25 be 58 81 1e 3d 0b 56 53 be 79 31 49 bd
       -0.16164246 0.03869757 -0.20638292 -0.049119446
000220 08 2c 26 3e 7a 48 1e 3d a0 f2 2c 3d f7 eb 0a bd
       0.16227734 0.038643338 0.042223573 -0.03391644
000230 23 63 ab 3d 8b b0 44 3d 4b c3 dc 3d c5 0f e2 bb
       0.08368518 0.048019927 0.10779437 -0.0068988525
000240 a6 a2 8b bd 3c be 7b 3d bf 92 cd 3d 8a 8b 49 3d
       -0.06818132 0.06146072 0.10037755 0.04920534
000250 ba c9 42 be 58 2f eb bc f1 16 21 be 3c 22 28 bd
       -0.19022265 -0.028709099 -0.15731408 -0.041048273
000260 71 30 74 bd ec b0 c5 3e ef 5b 35 3e 50 2d 31 3e
       -0.05961651 0.38611543 0.17710851 0.17302442
000270 77 e0 08 3d 54 d5 c5 3e 16 87 64 3e a0 9a 88 3d
       0.03341719 0.3863932 0.22317156 0.066701174
000280 ac b5 37 3c 0a 2f df 3c 6d 81 0b be 7e f3 96 3e
       0.011212748 0.02724411 -0.13623591 0.29482645
000290 c0 41 0b 3e 64 82 83 3d 64 a5 c3 3d 55 ca 66 3d
       0.135993 0.064213544 0.0955303 0.056345303
0002a0 df d9 c9 3d c8 59 bf 3d c3 22 73 bd e6 12 31 be
       0.09856009 0.09343296 -0.059359323 -0.17292365
0002b0 bc 34 37 3d 48 d0 66 be f1 8d ad 3d 4c a7 34 be
       0.044728026 -0.2254039 0.08474339 -0.17641944
0002c0 45 e8 76 3d 02 6a 1c 3d 95 17 01 be 56 13 41 3e
       0.060280103 0.038187034 -0.12606652 0.18855032
0002d0 9c f5 e5 bd fc b7 65 bd 08 1b a2 be 98 13 f7 3d
       -0.11228487 -0.056083664 -0.31661248 0.12064284
0002e0 e9 34 f0 be 10 39 ac be 83 63 03 3f b2 02 47 3e
       -0.46915367 -0.33637285 0.5132372 0.19434622
0002f0 8e d5 91 be f1 55 9b 3d 02 40 2e be 1f d4 01 be
       -0.28483242 0.075847514 -0.17016605 -0.12678574
000300 eb 39 4f 3d 1d 9e f4 bd 93 05 c1 3e e5 59 43 be
       0.050592344 -0.1194422 0.37699565 -0.19077261
000310 43 b7 75 3c 83 00 80 bd d1 2c d7 be 93 e6 df 3d
       0.014997306 -0.062500976 -0.4202638 0.109326504
000320 78 14 83 bb f6 70 4a be ce b5 ba 3d 8f cf 53 3d
       -0.004000243 -0.19769654 0.09116708 0.051711615
000330 9b 61 1a be db 82 0a 3e f1 9c 99 3d c5 6f 71 be
       -0.15076296 0.1352648 0.07500637 -0.23577793
000340 b3 5f 6a be 1f c1 91 bd 8c 77 6d be f6 19 fb bd
       -0.22888069 -0.07116913 -0.23190135 -0.12260811
000350 35 3f 9c 3d 58 b0 fd 3d 08 33 40 3d 70 98 1c be
       0.07629243 0.123871505 0.046923667 -0.15292525
000360 ae d1 a6 3d 71 a3 a8 3e ed 5a 4e 3e 23 fc f6 3d
       0.08145462 0.32937196 0.20151873 0.1205981
000370 83 5a 30 3e 3f bf 4d be f9 a6 19 3e ad 90 06 be
       0.17222027 -0.20092486 0.15005101 -0.13141127
000380 c8 51 9f bd 55 e2 b5 3d 50 96 3a 3e ca c0 5f 3e
       -0.077792704 0.0888106 0.18221402 0.21850887
000390 2d 8a 9b bd a8 77 97 3d 61 a9 95 3c 82 ed d4 bd
       -0.07594714 0.073958695 0.018269243 -0.103968635
0003a0 72 54 d2 3c 8d 33 94 3c c0 1e cd 3c eb 7f 91 bd
       0.025675032 0.018090988 0.025039077 -0.071044765
0003b0 90 6d 03 be 43 42 52 3c e9 3f 2b bd dc f3 e2 bc
       -0.12834764 0.012833181 -0.041808996 -0.027704172
0003c0 c0 b4 de 3d ef 6b 21 3e 24 89 82 be d5 90 1e 3d
       0.10874319 0.1576383 -0.25495255 0.03871234
0003d0 5f bd 00 3e 96 e2 39 3e 43 f2 61 be 5e 22 15 bd
       0.1257224 0.18152842 -0.22065072 -0.03640973
0003e0 8c 43 08 be cb bf 8d be ef 30 a1 be b4 5e 06 3d
       -0.13307017 -0.2768539 -0.31482646 0.03280516
0003f0 cc 1a c7 bd f1 5e 70 3c 85 9c 12 be 8c b0 05 3d
       -0.09721908 0.014671073 -0.1431752 0.03263907

hidden_layers.0.bias f4 [64]
000000 50 bf 8d bd 21 15 d8 bb e3 f0 4c 3d b4 5d 98 3d
       -0.069212556 -0.0065943156 0.050034415 0.074397475
000010 b3 38 ed 3d 44 8b 53 be e8 b7 34 bd 10 51 a3 3c
       0.1158308 -0.20658594 -0.0441207 0.019936115
000020 a8 5c 42 3e 11 34 d6 3e bd 7f b8 bc 58 32 96 3e
       0.18980658 0.418366 -0.022521848 0.29335284
000030 2e 8f 92 3e ff 1c 34 bd 3f 95 46 bd 77 15 a8 3d
       0.28624862 -0.043972965 -0.048482176 0.08207219
000040 51 ad cb bc 86 fd de bd 35 9d 26 bd 5a 1b 25 3e
       -0.024862917 -0.108881995 -0.040677268 0.16123715
000050 5a b7 92 3e ef 3e 47 3e 07 ea 00 be 12 4e f1 bd
       0.2865551 0.19457601 -0.12589274 -0.11782469
000060 37 60 56 be ea c3 90 bd 5e 57 be 3d 8d 70 b7 bd
       -0.2093514 -0.07068618 0.09294008 -0.08957014
000070 5e 8c d8 bd ea d8 82 3e eb 83 ca 3c 76 93 23 bd
       -0.10573648 0.25556117 0.024721107 -0.03993555
000080 b5 cf 84 3c 3d 29 c9 3d 58 bc 82 3c b3 e5 ad bd
       0.016212324 0.09822319 0.01595895 -0.08491077
000090 3d 0f 84 bd 0b fa 3f be 4a 9d 8d 3e 42 30 8d bc
       -0.06448219 -0.18747728 0.27659065 -0.017234925
0000a0 c0 de 35 bd d4 44 f6 3e cc 64 79 3e 7a 69 41 bd
       -0.044401884 0.48099387 0.24354857 -0.04721973
0000b0 b3 53 61 3c 38 d2 07 bd 3b 1f 89 3e 08 98 d5 bd
       0.013752866 -0.033159465 0.2678164 -0.10429388
0000c0 4c 90 06 3d ec d8 09 be 2e 48 ae bd a0 05 8e 3e
       0.032852456 -0.13461655 -0.08509861 0.27738667
0000d0 82 b2 73 bd 35 c2 1f be 40 9c 33 bd 58 a2 0b be
       -0.05949641 -0.15601428 -0.043850183 -0.13636148
0000e0 54 9d 32 be ac a5 4c be 61 c9 94 3d b2 3e d4 bd
       -0.17442828 -0.19985074 0.072649725 -0.10363521
0000f0 82 b5 89 bc 90 9f 21 3e 3a 21 1e 3c e9 5c 0f be
       -0.016810182 0.15783525 0.0096514765 -0.14000286

output_layer.weight f4 [4, 64]
000000 92 43 f4 be e7 59 79 3e 2b 1d 1e 3e b1 2f 1c bd
       -0.47707802 0.24350701 0.15440814 -0.03813142
000010 37 53 0f 3f 98 ae 31 be fd 55 b6 3e 46 79 6d be
       0.5598635 -0.17351758 0.3561248 -0.23190793
000020 39 2d 0f 3e e4 9e 0f 3e 90 35 98 3d ce f8 5e 3e
       0.13982095 0.14025456 0.07432091 0.21774599
000030 ac 40 b0 3d 41 72 be 3d 20 d5 1d bb 85 83 2c 3e
       0.08606085 0.09299136 -0.0024083331 0.16847046
000040 b0 95 eb be f2 c7 db 3d 17 42 62 3c 40 d1 39 3e
       -0.4601264 0.10731496 0.013809702 0.18146229
000050 e0 75 11 3e 3c 49 fd 3e e7 3b 96 bd c6 3e a2 be
       0.14205122 0.49469936 -0.07335644 -0.31688517
000060 84 ee 0f be cd 62 53 be db b4 c7 be ba 16 55 be
       -0.1405583 -0.20643158 -0.3900517 -0.20809451
000070 32 62 a5 3c 9f 57 ed 3d 6e c5 29 be 41 53 b4 3d
       0.020188425 0.11588978 -0.1657922 0.08804942
000080 2a df 98 3e f1 0d 01 3e a1 d5 9e 3d 65 a3 51 be
       0.2985776 0.12602974 0.0775559 -0.20472486
000090 3a f7 09 3e d0 d8 ab bd 4e d2 43 3e 32 3a e4 3e
       0.13473216 -0.08390963 0.19123194 0.4457565
0000a0 c2 b6 85 3e 1c fd 20 3e 88 03 ea 3d b8 ee 81 bd
       0.26115996 0.15721554 0.11426455 -0.0634436
0000b0 a4 61 91 3d 37 0e d3 bb 6f e9 59 3e 01 17 6f bd
       0.070987016 -0.0064409035 0.21280454 -0.058371548
0000c0 8a 1d 04 bd 96 4a 8d 3d fb cd dd bd 98 3c d2 3e
       -0.032254733 0.06898992 -0.10830303 0.41061854
0000d0 c7 95 b5 3e f3 d0 6a be 3b ab 5f 3c e6 77 79 be
       0.35465834 -0.2293127 0.013651664 -0.24362144
0000e0 f5 b6 a4 be 60 65 84 be 7c f5 a4 3e 23 a5 ad 3c
       -0.32170835 -0.25858593 0.3221854 0.021196907
0000f0 48 4c fc bd a6 9c 6c 3e cb cb e5 bc 29 c7 75 3e
       -0.12319237 0.23106632 -0.028051278 0.24001755
000100 94 e7 7f 3e 79 a6 52 3e 3f 29 65 3e ca d0 7e 3d
       0.24990684 0.20571317 0.22379015 0.062210836
000110 43 fd e8 3e 42 66 67 be 79 bd 0d 3f c8 31 32 be
       0.45505723 -0.22597602 0.5536724 -0.17401803
000120 7c d1 6f 3d 86 fc de 3d 43 d2 dc 3d ed f3 2d 3e
       0.05854939 0.10888009 0.10782292 0.16987582
000130 28 75 85 3c 66 53 5c 3e 2c a6 48 3e 97 9e 7c 3e
       0.016291216 0.21516189 0.1959464 0.24669872
000140 2d e3 23 be b6 e2 f7 3b ca a7 c0 bc de 04 2d 3e
       -0.1600463 0.007564868 -0.023517508 0.16896388
000150 10 62 08 3e 18 f5 c4 3e 77 f1 c7 bd 80 4c 70 be
       0.13318658 0.38468242 -0.09762853 -0.23466682
000160 ee 17 39 be 0e a5 20 be 4a c0 0a 3d de 30 3e be
       -0.18075535 -0.15687963 0.033874787 -0.18573329
000170 35 57 74 bd f5 72 47 3e 86 10 a2 3c 59 87 36 3e
       -0.05965348 0.19477446 0.01978327 0.17825069
000180 43 e2 85 3e 65 18 75 3d 4c 35 bc 3d cc 3b 92 be
       0.26149186 0.059837718 0.09189853 -0.28561246
000190 ad 4e 3d 3e 7e 9b 72 bd 3f 1b 69 3e 9a 49 01 3f
       0.18487044 -0.05923032 0.227643 0.5050293
0001a0 7c e3 5d 3e 19 eb 28 3e 11 2a 9a 3d ee ef d4 3c
       0.2166881 0.16495933 0.07527555 0.025993314
0001b0 ef 20 9a bc e4 64 52 bc 7e 80 46 3e b4 ad 0d 3e
       -0.018814532 -0.012841437 0.19384953 0.13835794
0001c0 eb db eb 3d a0 0e 2c 3e 9e 3f c8 bd 97 df 96 3e
       0.115165554 0.16802454 -0.09777759 0.2946746
0001d0 6d 8a ee 3e ab 59 51 be dd 6b dd 3d 93 c5 0e be
       0.46589985 -0.20444362 0.10811589 -0.13942556
0001e0 af e3 05 be db 01 37 be 62 af 3e 3e 0f 38 a4 bd
       -0.13075136 -0.17871802 0.1862159 -0.08018505
0001f0 0e bb 7f be 7b c1 f7 3d ee b5 68 be 1f 6a f8 3d
       -0.249737 0.1209745 -0.2272565 0.12129616
000200 e8 3e 93 be 0b 6d 09 3e 2e cc e3 3e 78 cc cd 3e
       -0.2875893 0.13420503 0.44491714 0.4019506
000210 f3 88 05 3f a4 8d 95 be 3f 09 35 3f 8e cc d9 bd
       0.5216209 -0.29209626 0.70717233 -0.10634719
000220 e9 32 84 3d 47 55 28 3e d3 f1 8e 3d 7a 75 35 3e
       0.06455023 0.1643878 0.06979718 0.17720595
000230 dd 47 4d 3e 70 c3 5a be 06 93 3a be e0 2d 05 3f
       0.20046945 -0.21363616 -0.18220147 0.52023125
000240 5a d7 0e be d1 e6 02 3c d2 ce 2c be 0a be b6 3d
       -0.13949338 0.007989601 -0.1687577 0.08922966
000250 ea ea ac 3d 4a 6a a6 3e 1b fe a8 be 02 a5 26 be
       0.08443244 0.32502967 -0.33006367 -0.16273883
000260 12 43 0f bd 68 44 8c be 49 c0 1f bd 5f 5b c6 be
       -0.034976073 -0.2739594 -0.039001737 -0.38741586
000270 a6 67 f4 3d 65 c4 25 3e f8 4f a6 3d 11 de 30 ba
       0.11933832 0.161882 0.081207216 -0.00067469577
000280 86 6c 29 3d 04 ca cd 3d 89 ed 76 3e 33 78 31 3e
       0.04136326 0.10048297 0.2411405 0.17331009
000290 2c 33 9f 3d 59 72 a2 be 34 bc 7f 3e df 9a 27 3d
       0.07773432 -0.31727865 0.24974138 0.04091918
0002a0 99 7d 5d bd 2c 8a 3c 3e 82 2a 16 3e 3c 38 73 3e
       -0.054074857 0.18412083 0.14664653 0.2375192
0002b0 52 d2 32 3e 4f 6e b2 3d 5d a5 1a 3e 08 01 e2 3d
       0.17463043 0.08712446 0.15102144 0.11035353
0002c0 7c 17 0d 3e 90 c9 10 3e 84 d2 95 be f6 5f 9b 3e
       0.1377849 0.1413939 -0.29262173 0.3034665
0002d0 f0 7c bb 3d f7 fd c3 bd 4e 4f db 3e f2 cc ba 3b
       0.09154689 -0.09569924 0.42833942 0.005700701
0002e0 be 06 0d be 83 fc 16 be 69 74 84 3e c5 57 ad bc
       -0.13772103 -0.14744763 0.25870064 -0.021160016
0002f0 f8 b0 3d be d8 94 d2 3d c6 8d 97 be 16 a0 41 be
       -0.1852454 0.10282296 -0.29600352 -0.18908724
000300 49 c6 4c 3d d9 cc a7 3e 4f db c4 3d 55 b8 0a bd
       0.049993787 0.32773474 0.09612142 -0.0338672
000310 04 f1 8f 3e f7 96 8f bd b6 6c 1c bd 1d bd 49 3b
       0.28113568 -0.07011216 -0.038189612 0.0030782886
000320 5b 06 0a 3e 11 42 51 3e cf 27 9c 3e b6 87 f7 3d
       0.13478987 0.20435359 0.30499122 0.12086432
000330 80 8e 1f 3e 55 23 ff 3d 4a 30 60 3e fe c5 59 3d
       0.15581703 0.12457911 0.21893421 0.053167336
000340 bb d2 d9 3e cb 02 b7 bc b9 57 96 3e 27 fb 2e 3e
       0.42543587 -0.022340199 0.29363802 0.17087995
000350 74 9a a2 3d ff 40 b1 3e a4 02 49 3d 95 7d f9 bd
       0.07939616 0.346199 0.049074784 -0.12182156
000360 27 79 cd be 6c da fc bd 45 87 aa bd d5 3b 64 bd
       -0.40131494 -0.12346348 -0.08326582 -0.055721123
000370 24 08 c3 3d 17 d4 85 3c 23 6b 9d 3d 46 2d 28 3e
       0.09523037 0.016336484 0.0768645 0.1642352
000380 ae d3 b8 bd 89 83 6c 3e b5 81 30 3d db c8 1f 3c
       -0.0902475 0.23097052 0.04309245 0.0097524775
000390 c6 26 50 3e a2 1b 51 be 6d 54 8f 3e b5 37 fe 3e
       0.20327291 -0.20420697 0.279941 0.49651876
0003a0 7f 2a 2e be e0 e3 6a 3e f6 dd 2f 3e fc 88 ae bd
       -0.17008398 0.2293849 0.17174515 -0.085222214
0003b0 3a 1e c0 3e 0e f0 47 be 54 51 1f 3e 96 65 a9 be
       0.3752306 -0.19525167 0.15558368 -0.33085316
0003c0 d9 ef 8c 3e 72 d5 8d bd cc a3 21 3e 1a ff 81 3e
       0.2752674 -0.06925477 0.1578514 0.2538994
0003d0 b4 27 30 be a8 15 c4 be be 04 91 3e 75 5f 30 3d
       -0.17202646 -0.38297772 0.2832393 0.043059785
0003e0 0b e4 67 bd 5d 2d 96 bd 58 61 2f 3e a8 27 d1 be
       -0.056613963 -0.07332871 0.17126977 -0.40850568
0003f0 63 33 c7 be b4 d1 bc 3d 5c d3 4d be 01 30 a6 3e
       -0.38906392 0.09219685 -0.20100158 0.324585

output_layer.bias f4 [4]
000000 c0 bb 82 3e 09 30 85 3e fc 0e 27 3e be e9 3a 3e
       0.25533867 0.2601321 0.1631431 0.18253228
