p3_collab-compet/checkpoint_critic.pth (torch, 431511 bytes, 11 tensors)

input_layer.weight f4 [256, 24]
0	0x3dc5a4d6	0.096505806
1	0x3f4c2d98	0.7975707
2	0xbdb0ed70	-0.086390376
3	0x3ed0f660	0.4081297
4	0x3d4fd36a	0.05073873
5	0xbfaed5cc	-1.3658996
6	0xbcc101d6	-0.023560446
7	0x3ed6283a	0.41827565
8	0x3e9ad62c	0.30241525
9	0x3f81239f	1.0088996
10	0x3d81c928	0.06337196
11	0xbcd312e7	-0.02576585
12	0x3d8cf552	0.06882729
13	0xbf9a67c0	-1.2062912
14	0x3c03a821	0.0080356905
15	0xbd3d6a78	-0.046244115
16	0x3ee43e1d	0.4457864
17	0x3f5c2780	0.8599777
18	0x3e86dfd4	0.26342642
19	0xbeee8077	-0.46582386
20	0x3e4905fb	0.19631188
21	0xbec66986	-0.38752383
22	0x3e5053f2	0.20344523
23	0xbed6172e	-0.4181456
24	0x3edc39fb	0.43012986
25	0xbea248f8	-0.31696296
26	0xbe0ae1db	-0.1356272
27	0xbebe8716	-0.37212437
28	0x3eb6e0a2	0.35718256
29	0xbf91a14f	-1.1377352
30	0xbdcf149a	-0.10111351
31	0xbeb4ff16	-0.35350865
32	0x3ebf807f	0.37402722
33	0xbe8be72d	-0.2732481
34	0x3cc59ee3	0.024123615
35	0x3f1072df	0.5642528
36	0x3e230c7f	0.15922736
37	0xbfe01c74	-1.7508683
38	0x3cebb978	0.028774962
39	0x3f20294b	0.6256301
40	0xbd50e560	-0.051
41	0xbf261ffe	-0.64892566
42	0xbdeee167	-0.11664086
43	0xbefe50ba	-0.49670964
44	0xbe340322	-0.1757932
45	0xbdcabaf1	-0.098989375
46	0xbdbd09c1	-0.09230376
47	0xbf030f3a	-0.5119511
48	0x3ec6d2ac	0.38832605
49	0x3e0b9534	0.13631135
50	0xbcf455b8	-0.02982603
51	0x3e0c16e8	0.13680613
52	0xbf0f3381	-0.55937964
53	0xbe9dcc18	-0.30819774
54	0x3ad10f9f	0.001595009
55	0x3e0b5e18	0.13610113
56	0x3f0b403f	0.54394907
57	0x3e85d626	0.26139945
58	0xbb45c7aa	-0.0030178824
59	0xbdb3b9b4	-0.087756544
60	0xbf29b25e	-0.6628779
61	0xbf1e9c5f	-0.61957353
62	0x3dada984	0.08479598
63	0xbd366986	-0.04453423
64	0x3f4bb430	0.7957182
65	0x3e4c530c	0.19953555
66	0x3d4c33df	0.049854156
67	0xbdef19f4	-0.11674872
68	0xbf7e6db7	-0.9938616
69	0xbf5a6060	-0.85303307
70	0x3cdd688b	0.027027389
71	0xbdb21051	-0.08694518
72	0x3ecddbbf	0.40206715
73	0x3eef73db	0.46768078
74	0xbe25ba2b	-0.16184299
75	0xbed500ee	-0.41602272
76	0x3dc06a37	0.09395259
77	0xbd044e1c	-0.032301053
78	0xbe2a98cb	-0.16659848
79	0xbefc813a	-0.49317342
80	0x3eeb973a	0.46013814
81	0x3e43a243	0.19104867
82	0xbe0af4f6	-0.13570008
83	0xbf1dd2a4	-0.6164954
84	0x3e0487e8	0.12942469
85	0xbf1a9bbf	-0.603939
86	0xbe0d52db	-0.13801138
87	0xbf15c4c0	-0.5850334
88	0x3f199aeb	0.6000201
89	0xbd4f570e	-0.05062013
90	0x3d014c2f	0.031566795
91	0x3e2ad431	0.16682507
92	0xbd9c9bc2	-0.07646896
93	0xbfb53d90	-1.4159412
94	0x3d4548f0	0.04816526
95	0x3e0d6a96	0.1381019
96	0xbe9d5d65	-0.30735317
97	0x3e994799	0.29937437
98	0xbde772cc	-0.11301193
99	0xbc1f1187	-0.009708769
100	0x3e97a957	0.29621384
101	0x3e1caa57	0.15299354
102	0xbdbe72f6	-0.09299271
103	0xbcf16f90	-0.029472142
104	0xbddb235a	-0.10700102
105	0x3e8fd494	0.28091872
106	0x3f1b31db	0.6062295
107	0xbe860812	-0.26178032
108	0x3e36db52	0.17857102
109	0xbda3653b	-0.079782926
110	0x3f1c2cdf	0.6100597
111	0xbea7c5c6	-0.32768077
112	0xbd17355c	-0.03691612
113	0x3eb4a820	0.3528452
114	0xbef3e34b	-0.47634348
115	0x3ddef7e7	0.10887127
116	0x3e19031c	0.14942592
117	0xbdf4e33e	-0.119574055
118	0xbecb77ff	-0.39739987
119	0x3e3f6bc8	0.18693459
120	0x3ef0a2b4	0.46999133
121	0x3d499a6a	0.049219526
122	0xbebab08e	-0.36462826
123	0xbda18870	-0.078873515
124	0x3d75af7e	0.059981816
125	0xbf1eadb3	-0.61983794
126	0xbeba7594	-0.3641783
127	0xbda98994	-0.08278194
128	0x3eadafc8	0.33923173
129	0x3e182e9c	0.1486153
130	0x3d00011b	0.031251054
131	0x3d866ce9	0.06563742
132	0x3e5e6b9c	0.21720737
133	0xbf85962d	-1.0436455
134	0x3d5350cd	0.05159073
135	0xbcac6ac6	-0.021047007
136	0x3e9d376a	0.3070634
137	0x3d300377	0.042972054
138	0x3dcf14a2	0.10111357
139	0xbee354ca	-0.44400626
140	0x3e7e77b4	0.2485035
141	0xbfb6b7dc	-1.427486
142	0x3db3e424	0.08783749
143	0xbec6de9c	-0.38841712
144	0xbdac4da5	-0.08413247
145	0x3d751807	0.059837367
146	0xbd745f3f	-0.059661146
147	0xbe93c179	-0.28858545
148	0x3e84b741	0.25921062
149	0xbfcb78c2	-1.5896227
150	0xbccad718	-0.024760768
151	0xbeb6bb75	-0.35689893
152	0xbcf14fdd	-0.029457027
153	0xbe4485ef	-0.19191717
154	0x3e75b143	0.23993401
155	0x3c6509ae	0.013979359
156	0x3e356f93	0.17718343
157	0xbfa9f577	-1.3278035
158	0x3e47cd8f	0.19512008
159	0x3c0e8a7c	0.008700009
160	0xbd8560c4	-0.06512597
161	0xbe8357ca	-0.25652915
162	0x3e4b8ca7	0.19877873
163	0xbd2ffd5e	-0.04296624
164	0x3e38ef27	0.1805998
165	0xbf7aa07e	-0.9790114
166	0x3dec8c92	0.11550249
167	0xbe1d0c52	-0.15336731
168	0x3ef84964	0.48493493
169	0x3f17f1d1	0.5935336
170	0x3b91de4b	0.004451548
171	0xbe98a032	-0.2980972
172	0x3e6ef300	0.23334885
173	0xbee14566	-0.4399826
174	0xbc1b51bc	-0.009479936
175	0xbe9bb9b7	-0.30415127
176	0x3eb528bb	0.35382637
177	0x3eeaa54a	0.4582923
178	0xbd968695	-0.07349888
179	0xbf5b30aa	-0.8562113
180	0x3de5aee3	0.112149976
181	0xbee9a25c	-0.45631683
182	0xbda1d08d	-0.07901106
183	0xbf704f1a	-0.938707
184	0x3f00d215	0.5032056
185	0x3e47e775	0.19521888
186	0x3ed7fcea	0.42185146
187	0xbec5f3de	-0.38662618
188	0xbd99d812	-0.07511915
189	0xbf1cc435	-0.6123689
190	0x3ea18f72	0.31554753
191	0xbee6970c	-0.45037115
192	0x3dd4bfea	0.10388167
193	0xbd394e26	-0.045240544
194	0xbc0b8a1d	-0.0085168155
195	0x3e37e701	0.17959215
196	0xbeafd501	-0.34342197
197	0xbe581f33	-0.21105652
198	0x3c626186	0.013817197
199	0x3e2de925	0.16983469
200	0x3bc80bc6	0.006104919
201	0xbdf638e5	-0.120225705
202	0x3c9e83c9	0.01934995
203	0x3d6733d3	0.056445908
204	0xbeef8850	-0.46783686
205	0xbf2176fd	-0.63072187
206	0xbc105ade	-0.008810727
207	0x3dad34c5	0.084573306
208	0xbe3f6e13	-0.18694334
209	0x3d587c47	0.052852895
210	0xbd80261d	-0.062572695
211	0x3f8785e0	1.058773
212	0xbefacf48	-0.48986268
213	0xbfd08c13	-1.6292747
214	0xbddd413b	-0.10803457
215	0x3f8f2dac	1.1185813
216	0x3e0451d3	0.12921838
217	0xbefbf8c5	-0.49213234
218	0x3d628a5d	0.055307735
219	0x3dcfa8f2	0.10139646
220	0xbfbf4938	-1.494422
221	0xbe710373	-0.23536472
222	0x3dcfcc26	0.1014636
223	0x3e21f6ec	0.1581685
224	0xbe24bc20	-0.16087389
225	0xbf0ec4f2	-0.55769265
226	0xbd877be7	-0.06615429
227	0x3e06cfe1	0.13165237
228	0xbf6a5e52	-0.9155017
229	0xbdefc888	-0.1170817
230	0xbd11e962	-0.03562296
231	0x3db4800d	0.08813486
232	0xbe236bf5	-0.15959151
233	0xbe822d77	-0.25425312
234	0x3dba6bc6	0.091025874
235	0x3f5644e7	0.83698887
236	0x3e7bd8e8	0.24594462
237	0xbe463cc4	-0.19359118
238	0x3ddd5c26	0.108085915
239	0x3f6bc7e1	0.92101866
240	0x3dc96195	0.098330654
241	0xbf543a45	-0.8290141
242	0xbe16cbb5	-0.14726146
243	0x3ecc7095	0.39929643
244	0x3ed48e33	0.4151474
245	0xbf692e64	-0.9108641
246	0xbdff6640	-0.124706745
247	0x3eda8779	0.42681482
248	0x3e4ae455	0.19813664
249	0xbf3571da	-0.7087685
250	0x3be52c0e	0.006993777
251	0x3eba9ac0	0.3644619
252	0x3edef7e9	0.43548515
253	0xbed4e832	-0.415834
254	0x3cbfc9b3	0.023411607
255	0x3ecc5c18	0.39914012

input_layer.bias f4 [256]
0	0xbee753da	-0.4518116
1	0xbd045698	-0.032309145
2	0xbe4cd33c	-0.20002455
3	0xbe3e6985	-0.1859494
4	0xbd2cee8f	-0.042219695
5	0xbf10dfac	-0.56591296
6	0xbe84ea70	-0.25960112
7	0xbe918ab9	-0.2842615
8	0xbe9eae35	-0.30992284
9	0xbee3fa70	-0.44527006
10	0xbee49931	-0.44648126
11	0xbf002633	-0.5005829
12	0xbf30ddbf	-0.6908836
13	0xbedbc243	-0.42921647
14	0xbea76dad	-0.32700863
15	0xbf036396	-0.5132383
16	0xbe2e64af	-0.17030595
17	0x3d29152c	0.041279957
18	0xbf5997fc	-0.84997535
19	0xbed289af	-0.4112067
20	0xbe3cd0c7	-0.18439017
21	0xbf42c7d0	-0.7608614
22	0xbeaa32f4	-0.33242
23	0x3ee9921b	0.45619282
24	0xbf2ff9f6	-0.68740785
25	0xbddecc08	-0.108787596
26	0xbf1a8f73	-0.60375136
27	0xbeb3332d	-0.34999982
28	0xbcdeb369	-0.027185159
29	0xbf3f5866	-0.7474426
30	0xbf0d35bf	-0.55160135
31	0xbfacab76	-1.3489826
32	0xbec38ccd	-0.3819336
33	0xbed955b4	-0.424482
34	0xbe935843	-0.28778276
35	0xbf0de55b	-0.55428094
36	0xbfdda9b4	-1.7317414
37	0xbf27a267	-0.6548218
38	0xbeee3fa6	-0.46532935
39	0xbeeb5002	-0.4595948
40	0xbe86f768	-0.2636063
41	0x3e6a7db2	0.22899511
42	0x3e36ec14	0.17863494
43	0xbf85c061	-1.0449334
44	0xbe8fd96d	-0.2809557
45	0xbf73a3cf	-0.9517183
46	0xbf1e6ed2	-0.6188785
47	0xbdd4f5a4	-0.10398415
48	0xbf8b83fa	-1.0899651
49	0xbec06a17	-0.3758094
50	0xbec535d7	-0.3851764
51	0xbeaee2d6	-0.34157437
52	0xbf00b047	-0.5026898
53	0xbf43c1cd	-0.7646759
54	0xbf0faf13	-0.5612652
55	0xbe4e69a6	-0.20157489
56	0xbeb0a9e5	-0.3450462
57	0xbf6387e7	-0.88879246
58	0xbe5bf06a	-0.2147843
59	0xbefc96ab	-0.493337
60	0xbf0db3ec	-0.55352664
61	0xbe920f1b	-0.2852715
62	0xbea169df	-0.31526086
63	0xbe9af9a9	-0.302686
64	0x3d0cd2c3	0.034380686
65	0xbe3f4d5b	-0.18681853
66	0xbf4cbb61	-0.7997342
67	0xbf102154	-0.56300855
68	0xbf394b56	-0.7238058
69	0x3e0e3473	0.13887195
70	0xbf45a9bb	-0.77212113
71	0xbe80b67c	-0.25139225
72	0xbe459490	-0.19294953
73	0xbd94e95f	-0.072710745
74	0xbe6df79a	-0.23238984
75	0xbeba2ad3	-0.36360797
76	0xbecbaf07	-0.39781973
77	0xbf8189f6	-1.0120227
78	0xbf12d135	-0.57350475
79	0xbee9f621	-0.45695594
80	0xbfcfd4c4	-1.6236806
81	0xbef4bee1	-0.4780188
82	0xbecc4767	-0.39898226
83	0xbe3a3661	-0.18184806
84	0xbe4b998e	-0.19882795
85	0xbf93524a	-1.1509488
86	0x3ed09bf4	0.40743983
87	0xbf41453b	-0.7549626
88	0xbf38bb06	-0.72160375
89	0xbedc4e7f	-0.43028638
90	0xbd055961	-0.03255594
91	0xbe96193c	-0.29316127
92	0xbda39236	-0.07986872
93	0x3e9b16dc	0.30290878
94	0xbf8be608	-1.0929575
95	0xbf74ed2e	-0.9567441
96	0xbef2aa9d	-0.47395793
97	0xbe5cbe9b	-0.21557085
98	0xbf241f5d	-0.64110357
99	0xbe8c212e	-0.27369064
100	0xbe9ee9ce	-0.31037754
101	0xbe90ff71	-0.28319886
102	0xbe83d13f	-0.2574558
103	0xbe92e136	-0.28687447
104	0xbe53d01b	-0.20684855
105	0xbe5f9cc5	-0.21837147
106	0xbe1dd47c	-0.15413088
107	0xbec7590a	-0.3893512
108	0xbf58676e	-0.8453282
109	0x3f913e00	1.1347046
110	0xbf38a4ad	-0.72126275
111	0xbf53ea98	-0.82779837
112	0xbe7f94ab	-0.24959056
113	0xbd79012d	-0.060792137
114	0xbed36d3e	-0.41294283
115	0xbe1b5f2a	-0.15173021
116	0xbe62e70d	-0.22158451
117	0xbe6b5515	-0.22981675
118	0xbe6318f3	-0.22177486
119	0xbf4e2438	-0.80524015
120	0xbeffea39	-0.49983385
121	0xbe3ab12c	-0.18231648
122	0xbea7688e	-0.32696956
123	0x3e29da0b	0.16587083
124	0xbeaa3397	-0.33242485
125	0xbaaaa9f7	-0.0013020624
126	0xbe10b0b7	-0.14129911
127	0xbed90fa5	-0.42394748
128	0xbebd5058	-0.3697536
129	0xbf34c45e	-0.7061213
130	0xbe4386b1	-0.1909435
131	0xbebd0e7b	-0.3692511
132	0xbe9ed6d9	-0.3102329
133	0xbf003ab2	-0.5008956
134	0x3ed8227e	0.42213815
135	0xbe543b46	-0.20725736
136	0xbe99d382	-0.3004418
137	0xbeda1a29	-0.42598084
138	0xbf30795f	-0.689352
139	0xbeb3bf64	-0.35106957
140	0x3cab3427	0.020898892
141	0xbd02d9de	-0.031946056
142	0xbec49557	-0.38395187
143	0xbf219372	-0.6311561
144	0xbf395316	-0.72392404
145	0xbe477fec	-0.19482392
146	0xbf809f6a	-1.0048649
147	0xbf5b73cb	-0.8572356
148	0xbf120626	-0.5704063
149	0xbf20e09c	-0.62842727
150	0x3dc3eebd	0.0956702
151	0xbebadce6	-0.36496657
152	0xbee98159	-0.45606497
153	0xbf30423b	-0.6885106
154	0xbedfaffe	-0.4368896
155	0xbea2d7cc	-0.31805265
156	0xbe7a21fc	-0.24427027
157	0xbd8a1728	-0.06742698
158	0xbf375ca9	-0.71625763
159	0xbe9d2e60	-0.30699444
160	0xbe2389c0	-0.15970516
161	0xbe10f5d8	-0.14156282
162	0xbf112797	-0.56701034
163	0xbe22299e	-0.15836188
164	0xbe61c024	-0.22045952
165	0xbddc00e3	-0.10742357
166	0xbf121c2c	-0.57074237
167	0xbf33d6ac	-0.7024944
168	0xbec81476	-0.3907811
169	0xbf0f8081	-0.56055456
170	0xbf122a1e	-0.57095516
171	0xbe3a6531	-0.18202664
172	0x3d00bec5	0.031431932
173	0xbe9fb87b	-0.31195435
174	0xbe8ff19e	-0.28114027
175	0xbef7f9e1	-0.4843283
176	0x3b004108	0.0019570012
177	0xbe5b4abb	-0.21415226
178	0xbfae50db	-1.3618425
179	0xbeee3e77	-0.46532032
180	0xbf0ace58	-0.54221106
181	0xbeb2bba2	-0.34908777
182	0xbf21ed2f	-0.6325254
183	0xbf135829	-0.57556397
184	0x3ddde56e	0.10834776
185	0xbf0072cf	-0.50175184
186	0xbf6c53e2	-0.92315495
187	0xbe3490fe	-0.17633435
188	0xbee5f293	-0.44911632
189	0xbe951de9	-0.29124382
190	0xbed5c9d3	-0.41755542
191	0xbe7233eb	-0.23652618
192	0xbebc3ed3	-0.3676668
193	0xbe7b4212	-0.24536923
194	0xbefc51e0	-0.49281216
195	0x3de80f24	0.11331013
196	0xbf16f389	-0.58965355
197	0xbf1d70b2	-0.61500084
198	0xbf4bbec7	-0.7958798
199	0xbedf73c3	-0.43643007
200	0xbf2bea80	-0.67154694
201	0x3e6a2a70	0.22867751
202	0xbe17a9b2	-0.14810827
203	0x3ca82280	0.020524263
204	0xbf349c5b	-0.7055108
205	0xbe27d4ab	-0.1638972
206	0xbc31e588	-0.010857947
207	0xbf857aa9	-1.0428058
208	0xbee2fa5d	-0.44331637
209	0xbf9d7695	-1.2301813
210	0xbec03916	-0.37543553
211	0xbedae073	-0.42749366
212	0xbf308b89	-0.68962914
213	0xbed82609	-0.4221652
214	0xbf21a3b8	-0.6314044
215	0xbf728874	-0.9473946
216	0x3c4421b3	0.011970925
217	0xbf8f042d	-1.1173149
218	0xbf640865	-0.8907531
219	0xbe9d208c	-0.30688894
220	0x3c8917e5	0.016735027
221	0xbec37d9a	-0.38181764
222	0xbf53a85a	-0.8267876
223	0xbed5c780	-0.4175377
224	0xbe0e2f1a	-0.13885155
225	0xbf097a17	-0.5370192
226	0xbf102bc3	-0.56316775
227	0xbf25676f	-0.6461095
228	0xbf18f464	-0.5974791
229	0xbf227250	-0.6345568
230	0xbe8960fc	-0.26831806
231	0xbf6df028	-0.92944574
232	0x3d08f794	0.033439234
233	0xbf90fee1	-1.1327783
234	0xbf2ee1db	-0.6831338
235	0xbf137b60	-0.5761013
236	0xbea9872a	-0.33110934
237	0xbe3603cf	-0.1777489
238	0xbecb55f5	-0.39714018
239	0xbf021c2c	-0.50824237
240	0xbf449a72	-0.76798165
241	0xbdc18d65	-0.09450797
242	0xbf0b9d8b	-0.54537266
243	0xbf5beb47	-0.8590588
244	0xbec5b839	-0.38617113
245	0xbed65107	-0.41858694
246	0x3e36d61a	0.17855111
247	0xbe7ea5c4	-0.24867922
248	0xbeca2838	-0.3948381
249	0xbe51572c	-0.2044341
250	0xbf463efb	-0.7743985
251	0xbefaab8c	-0.48959005
252	0xbf414b78	-0.7550578
253	0xbf336ebc	-0.7009084
254	0xbf8cfaf9	-1.1014091
255	0xbea6b3d7	-0.32559082

input_batch_norm.weight f4 [256]
0	0x3ee0c0d9	0.4389713
1	0x3dcfc9ce	0.10145913
2	0x3f0dcf93	0.5539486
3	0x3da2494e	0.07924138
4	0x3e6e71eb	0.23285644
5	0x3defe51b	0.1171362
6	0x3d91e89b	0.07124444
7	0x3e634367	0.2219368
8	0x3eb75fe2	0.3581534
9	0x3e379b4d	0.17930336
10	0x3cfe42fd	0.031037802
11	0x3db5ba33	0.08873405
12	0x3fba97ab	1.4577535
13	0x3e3ecdf0	0.18633246
14	0xbd20334f	-0.03911143
15	0x3c0eac79	0.008708113
16	0x3d0fa8bf	0.03507304
17	0x3f45c4be	0.7725333
18	0x3d392a0c	0.045206115
19	0x3dea936e	0.11453901
20	0x3d9507de	0.07276891
21	0x3eef088d	0.4668621
22	0x3ca28896	0.01984052
23	0x3f54357c	0.8289411
24	0xbeaae8fe	-0.33380884
25	0x3e6664cc	0.22499388
26	0x3e195c1c	0.14976543
27	0x3e6a8a4f	0.22904323
28	0x3e301852	0.17196777
29	0xbd978396	-0.07398145
30	0x3f8012eb	1.0005773
31	0x3ed91efe	0.42406458
32	0x3e0499cf	0.12949298
33	0x3ef30354	0.47463477
34	0x3c909af4	0.017652012
35	0x3ea39795	0.31951585
36	0x3f0635de	0.52425945
37	0x3eb95726	0.361993
38	0x3e1d38d6	0.15353712
39	0x3df2e63a	0.118603185
40	0x3f41917a	0.75612605
41	0x3e10d1d8	0.14142549
42	0xbb426e67	-0.0029667856
43	0x3dc00c5e	0.09377359
44	0x3d4e0fd4	0.050308064
45	0x3e969091	0.2940717
46	0x3de0e6a5	0.10981492
47	0x3cbed706	0.02329589
48	0x3e268b04	0.16263968
49	0x3e2f216e	0.17102596
50	0x3f4d3dc0	0.8017235
51	0x3db45e64	0.08807066
52	0x3ca0dbf1	0.019636126
53	0x3ecd4339	0.4009035
54	0x3f4be996	0.796533
55	0x3bca50b0	0.0061741695
56	0xbd90af19	-0.07064647
57	0x4008e3d5	2.1389058
58	0x3ce338f2	0.027737115
59	0x3e545b77	0.20738016
60	0x3e95fda4	0.29295075
61	0x3e3ace5f	0.18242787
62	0xbc4b50e1	-0.01240942
63	0xbbf1beef	-0.0073774974
64	0xbe39c96a	-0.1814324
65	0x3e68d10b	0.22735994
66	0x3e0a34cc	0.13496703
67	0x3e88b368	0.26699376
68	0xbcf369a3	-0.029713457
69	0x3dac3e23	0.08410289
70	0x3f929f81	1.1454927
71	0xbdacf58a	-0.0844527
72	0x3e39836e	0.18116543
73	0x3e0baab4	0.13639337
74	0x3ded988c	0.11601362
75	0x3ea668dd	0.3250188
76	0xbbdf9f3f	-0.0068244035
77	0x3ea01948	0.31269288
78	0x3de5b73c	0.1121659
79	0x3f48cc78	0.78436995
80	0x3f81ac9d	1.0130802
81	0xbc0af0b4	-0.00848024
82	0x3de3d67a	0.111248925
83	0x3fe8eca7	1.819722
84	0x3da12546	0.078684375
85	0x39decd72	0.00042496208
86	0x3f4ac246	0.7920269
87	0x3e068bf2	0.13139322
88	0x3df7512e	0.12076031
89	0xbc42ffda	-0.01190182
90	0x3eb621aa	0.3557256
91	0xbd481df2	-0.048856683
92	0x3c1b3184	0.009472255
93	0x3f6a8837	0.916141
94	0x3f520b01	0.8204804
95	0x3e590d23	0.21196418
96	0x3e43c1a8	0.19116843
97	0x3eee5e8d	0.46556512
98	0x3e3af9cc	0.18259352
99	0x3f2a90b8	0.66627073
100	0xbb4a4d83	-0.0030868954
101	0xbd65cba8	-0.056102425
102	0x3d0ce6bc	0.034399733
103	0x3eb3f000	0.35144043
104	0x3c5f1664	0.013616178
105	0x3e006ce8	0.12541544
106	0x3f3855ea	0.72006094
107	0x3e057801	0.13034059
108	0x3e47e06f	0.19519208
109	0x3ffde4cc	1.9835448
110	0x3e877d32	0.26462704
111	0x3dfd0738	0.123548925
112	0x3f2699d1	0.65078455
113	0x3eaf2347	0.34206602
114	0x3e930353	0.28713474
115	0x3e94cbb3	0.2906166
116	0x3f131126	0.5744804
117	0x3e66760c	0.22505969
118	0x3eff152c	0.4982084
119	0x3d9fac82	0.07796575
120	0x3d0bf9ea	0.034173883
121	0x3e592f9b	0.21209566
122	0x3e54c8ea	0.20779768
123	0x3eab91a2	0.33509547
124	0x3f88c2c8	1.0684443
125	0xbcb872cc	-0.022515677
126	0x3fc5bcdc	1.544826
127	0x3e3448b7	0.17605864
128	0x3de3e0a3	0.111268304
129	0x3ea0860a	0.31352264
130	0x3e2bb9ee	0.16770145
131	0x3f5bef86	0.8591236
132	0x3eb468f0	0.3523631
133	0x3e8ff55b	0.2811688
134	0x3f11b6f7	0.5691981
135	0x3e00bdab	0.12572353
136	0x3ebbc840	0.36676216
137	0xbcaee832	-0.021350954
138	0x3e734f8c	0.23760813
139	0x3d134547	0.03595474
140	0x3d48558f	0.04890972
141	0x3fb55fe8	1.4169893
142	0x3e1e9936	0.15488133
143	0x3ee6a09b	0.45044407
144	0x3de22184	0.11041549
145	0x3cd390e1	0.02582592
146	0x3db30fde	0.08743261
147	0x3ea7a6a8	0.32744336
148	0x3dfcdea4	0.12347153
149	0x3ea60d01	0.32431796
150	0x3ddea3f5	0.10871116
151	0x3d253074	0.04032941
152	0x3e8d17f4	0.27557337
153	0x3f8abbd6	1.0838573
154	0x3e9152e1	0.28383544
155	0x3c545fb0	0.012962267
156	0x3c7354aa	0.014851728
157	0x3f437674	0.7635262
158	0x3f3844d8	0.7198005
159	0xbc72f917	-0.014829895
160	0x3eb3d11c	0.35120475
161	0xbc6beede	-0.014400212
162	0x3d1c176f	0.038108286
163	0x3cabbc6d	0.020963872
164	0x3d623688	0.055227786
165	0x3f0c7e81	0.5488053
166	0x3e87ca18	0.26521373
167	0x3e0ee38d	0.13953991
168	0x3f769042	0.9631387
169	0x3f958b86	1.1683204
170	0x3d2fd343	0.042926084
171	0x3ec72f94	0.38903487
172	0x3f9327e6	1.1496551
173	0xbce5b80a	-0.028041858
174	0xbc314e6e	-0.010821922
175	0x3f365980	0.71230316
176	0x3fa74cf1	1.3070356
177	0xbc0c26dc	-0.008554187
178	0x3f222867	0.633429
179	0x3c76cd5b	0.015063609
180	0x3edfff8f	0.43749663
181	0xbb27b1a2	-0.0025588055
182	0x3f10fdb5	0.56637126
183	0x3f3d2fc8	0.73901033
184	0x3e803da7	0.25047037
185	0x3e38e504	0.18056113
186	0xbe0e4456	-0.13893256
187	0x3d3b8e82	0.045790203
188	0x3f2dae8b	0.67844456
189	0x3d59cc40	0.053173304
190	0xbb92d721	-0.004481212
191	0x3d32cd8d	0.04365306
192	0x3e927e2b	0.28611884
193	0x3f94c8b2	1.1623747
194	0x3f0b39ca	0.54385054
195	0xbb831dcf	-0.004001356
196	0x3e194739	0.14968576
197	0x3e2e2c19	0.1700901
198	0x3e56ef60	0.20989752
199	0x3e0c3d1d	0.13695188
200	0x3e4abe9f	0.19799279
201	0x3f119ca8	0.56879663
202	0xbcfb046d	-0.030641759
203	0x3cfac150	0.030609757
204	0x3f43dbd2	0.76507294
205	0x3e4ce5a7	0.2000948
206	0x3dca88c5	0.09889368
207	0x3db2e641	0.08735324
208	0x3da0305a	0.07821722
209	0x3e2d99ee	0.16953251
210	0x3d872751	0.06599296
211	0x3dfae1ba	0.12250085
212	0x3e41103b	0.18853848
213	0x3ef06d25	0.4695827
214	0x3fa912cc	1.3208861
215	0x3e8f6b10	0.2801137
216	0x3f159857	0.5843558
217	0x3f8b83c4	1.0899587
218	0x3ef19dcc	0.47190702
219	0x3f011d93	0.5043575
220	0x3e1e3769	0.15450825
221	0x3bc9b7df	0.0061559523
222	0x3f6233b5	0.8836015
223	0x3db68e17	0.0891382
224	0x3f29a32f	0.66264623
225	0x3c5b6432	0.013390588
226	0x3e681269	0.22663273
227	0x3e469afd	0.19395061
228	0x3dce6e0e	0.10079585
229	0x3e968bae	0.29403442
230	0x3e3b24f3	0.18275814
231	0x3fb74d46	1.4320457
232	0x3f159a63	0.584387
233	0x3f547df4	0.8300469
234	0x3d970229	0.07373459
235	0x3da2e950	0.07954657
236	0x3b64995d	0.003488145
237	0x3d80b465	0.062844075
238	0x3eed3d76	0.46335953
239	0x3e04f6c3	0.12984757
240	0x3d9921fd	0.07477186
241	0x3e2cf73a	0.16891184
242	0x3d517086	0.0511327
243	0x3f0241ea	0.50881827
244	0x3e886240	0.2663746
245	0x3d853a75	0.065052904
246	0x3ea52d5f	0.32261178
247	0xbbc70341	-0.006073386
248	0x3df17071	0.117890246
249	0x3bdf0814	0.006806383
250	0x3e1bfd56	0.15233359
251	0x3e417701	0.18893053
252	0x3df68e6d	0.12038884
253	0x3e9feee7	0.31236956
254	0x3e1abb7a	0.15110579
255	0x3ebc43d3	0.36770496

input_batch_norm.bias f4 [256]
0	0x3eb8335f	0.35976693
1	0x3d72f878	0.05931899
2	0xbe635634	-0.22200853
3	0x3c5a1348	0.013310261
4	0x3e807a4a	0.250933
5	0xbd110080	-0.035400867
6	0xbe70d73d	-0.23519607
7	0x3e004bbf	0.12528895
8	0xbc7de194	-0.015495677
9	0xbe801a37	-0.2502
10	0xbca39815	-0.01996998
11	0x3c5fb2f0	0.013653502
12	0x3e6c7b69	0.23093952
13	0xba9e0fa1	-0.0012059101
14	0x3c7983f0	0.01522921
15	0x3ab3b67c	0.0013711001
16	0x3c8d07e6	0.01721568
17	0xbe9a7d48	-0.30173707
18	0xbc8f792f	-0.01751384
19	0xbdd252de	-0.10269712
20	0x3dd376bd	0.10325382
21	0x3f1698c0	0.5882683
22	0xbaba5b78	-0.0014217934
23	0xbdb702bc	-0.089360684
24	0x3bb1a170	0.005420856
25	0x3cb878f5	0.022518614
26	0x3e4a98d0	0.19784856
27	0x3d9f2fb1	0.07772768
28	0x3dc5dc40	0.0966115
29	0xbc564511	-0.01307799
30	0xbe994797	-0.2993743
31	0xbdf2b373	-0.118506335
32	0xbd666ddc	-0.056257114
33	0x3ef1bf1a	0.4721611
34	0xbc1ca5b5	-0.009560992
35	0x3d7fc429	0.062442932
36	0x3ea43082	0.3206826
37	0x3bcc3597	0.0062319743
38	0x399dc518	0.0003009222
39	0x3eaa298a	0.33234817
40	0x3f397975	0.72450954
41	0x3db37ad9	0.08763666
42	0xbc92ec40	-0.017934918
43	0xbb030ca1	-0.001999654
44	0x3caac453	0.020845568
45	0x3de4f77d	0.11180017
46	0x3b086025	0.002080926
47	0xbe8278d9	-0.25482824
48	0x3c981fd4	0.018569864
49	0x3e508b12	0.20365551
50	0x3f0580b1	0.5214949
51	0x3d24a1fb	0.04019354
52	0x3d076040	0.033050776
53	0x3f0217ed	0.5081776
54	0x3eff3896	0.4984786
55	0x3e78f05d	0.24310441
56	0x3c11a9e2	0.008890601
57	0xbcec1e6e	-0.028823104
58	0xbc634956	-0.013872465
59	0xbe86ccca	-0.26328117
60	0x3e344de6	0.17607841
61	0xbe7b0ffb	-0.24517815
62	0xbad4787d	-0.0016210225
63	0x3b67685c	0.0035310006
64	0xbd22c266	-0.039736174
65	0xbe36acfd	-0.17839427
66	0x3da038f2	0.078233615
67	0x3cce036e	0.02514812
68	0x3b3b6a0a	0.002859714
69	0xbc2f49a4	-0.01069871
70	0x3f2effe3	0.683592
71	0xbbee50fd	-0.007272838
72	0x3ad9a152	0.0016603863
73	0xbe84de5f	-0.25950906
74	0x3d51e5a0	0.051244378
75	0x3dfb9017	0.12283342
76	0xbc9c8c69	-0.019109922
77	0x3f012ddf	0.5046062
78	0x3c83e1ac	0.01609882
79	0x3ec44c99	0.3833969
80	0x3e53fe87	0.20702563
81	0x3d428690	0.04749161
82	0xbf047b89	-0.51751
83	0x3e1ecf22	0.15508702
84	0x3d20958f	0.03920513
85	0x3c07b155	0.008282025
86	0x3d0732c6	0.033007406
87	0x3d19991b	0.03749953
88	0xbc54aa06	-0.01297999
89	0xbd42defc	-0.047575936
90	0x3e8e50c1	0.27795985
91	0x3be6c6f1	0.0070427586
92	0x3bba5126	0.005685943
93	0x3c882d2a	0.016623098
94	0x3ea478b4	0.3212334
95	0x3d584b56	0.05280622
96	0x3dcf576d	0.10124097
97	0xbea115b1	-0.31461862
98	0xbec060e0	-0.3757391
99	0x3d09cde2	0.03364361
100	0x3a7fdda6	0.0009760506
101	0xbbb188eb	-0.005417933
102	0xbc450df7	-0.012027255
103	0xbeb6f11e	-0.35730833
104	0x3c865cbf	0.016401647
105	0x3cf91e46	0.030409943
106	0x3e68bb2b	0.22727649
107	0xbc1a5e97	-0.009421966
108	0x3d8a9402	0.067665115
109	0xbe85467f	-0.26030347
110	0x3e0906ea	0.13381544
111	0x3ccdaed9	0.025107788
112	0x3e83a725	0.2571346
113	0xbe901ccf	-0.2814698
114	0x3e5b7370	0.21430755
115	0x3e277d74	0.1635645
116	0x3e7422f4	0.23841459
117	0x3d603271	0.054735605
118	0x3daf292a	0.08552773
119	0x3bfabee0	0.0076521486
120	0xbb598b1c	-0.0033194488
121	0xbe6a6b19	-0.22892417
122	0x3cba7a82	0.022763494
123	0x3e4cd08a	0.20001426
124	0x3e0f210a	0.13977447
125	0x3ba1ed8f	0.0049416493
126	0x3eca1263	0.39467153
127	0x3d4eef3c	0.05052112
128	0x3c97cbf5	0.018529871
129	0x3e5168b5	0.20450099
130	0xbe91e4d4	-0.28494895
131	0xbb62d874	-0.003461388
132	0x3e63ca20	0.22245073
133	0x3e0dbd8b	0.13841836
134	0x3ec45539	0.3834627
135	0x3dd236ac	0.10264334
136	0xbb122c74	-0.0022304328
137	0xbc083079	-0.008312338
138	0x3e0548ea	0.13016096
139	0x3eeff82a	0.46869022
140	0x3eae1dda	0.3400715
141	0x3edf53e2	0.43618685
142	0xbe066bad	-0.13127013
143	0x3e4896e1	0.19588806
144	0xbdf49148	-0.11941773
145	0x3b67d21b	0.0035373035
146	0x3bca4314	0.006172547
147	0x3e33872f	0.17532037
148	0xbc08c0fb	-0.008346791
149	0xbee144e4	-0.43997872
150	0x3ce90c71	0.028448315
151	0xbb450d10	-0.00300676
152	0x3e12c3dc	0.14332527
153	0x3ee8afce	0.45446628
154	0x3da93e5e	0.08263849
155	0xbd11f8cf	-0.035637673
156	0xbd80d361	-0.06290317
157	0x3ec165c3	0.3777295
158	0xbecf159a	-0.40446168
159	0xbbcc7fbf	-0.0062408145
160	0x3e714d1f	0.23564576
161	0x3b71ca68	0.0036894325
162	0x3e44e984	0.19229704
163	0x3cc9fc74	0.024656512
164	0xbeeb7ecf	-0.45995185
165	0x3ef03321	0.46914008
166	0x3e5e7520	0.21724367
167	0xbdf3ab99	-0.11897964
168	0x3f248500	0.6426544
169	0x3f0c5ad5	0.548261
170	0xbdcdde42	-0.10052158
171	0x3e295857	0.16537605
172	0x3f10b44f	0.5652513
173	0xbc9f62ca	-0.019456286
174	0x3b37558f	0.002797458
175	0xbd09731c	-0.033557042
176	0xbeb1f8ef	-0.34760234
177	0xbba308e3	-0.0049754246
178	0xbce979e1	-0.0285005
179	0x3d26eb2b	0.040751617
180	0x3e2ababe	0.16672799
181	0x3cc9d06f	0.024635522
182	0x3ec24341	0.37941936
183	0x3e84cc5b	0.2593716
184	0x3dc4c9a5	0.09608773
185	0xbcfec648	-0.031100407
186	0x3b1c9815	0.002389436
187	0x3c8cbd01	0.017179968
188	0x3efaeff2	0.4901119
189	0xbc353fd7	-0.011062584
190	0xbb8ec355	-0.0043567815
191	0xba9e6189	-0.0012083511
192	0x3b057bb1	0.0020367915
193	0x3e1007d8	0.14065492
194	0xbe045c9d	-0.12925954
195	0xbc04ddef	-0.008109554
196	0x3d2da895	0.0423971
197	0xbe48918e	-0.19586775
198	0xbc3046c2	-0.0107590575
199	0x3e98ef70	0.29870176
200	0x3cc87949	0.024471896
201	0x3c899d97	0.016798778
202	0x3c070552	0.008241015
203	0xbe869b5d	-0.26290408
204	0x3eeac227	0.4585125
205	0x3db235ae	0.08701645
206	0xbbcae1a5	-0.0061914497
207	0x3e86844e	0.26272815
208	0xbae49b5a	-0.0017441318
209	0x3d6f0b64	0.058360472
210	0xbe08a1ee	-0.13343021
211	0x3d97a23a	0.07403989
212	0x3d9af7ef	0.07566821
213	0x3e443279	0.19159879
214	0x3e9454c9	0.28970936
215	0x3d4ec694	0.050482348
216	0x3dd81391	0.10550607
217	0x3f08c047	0.5341839
218	0x3e81eb64	0.253749
219	0x3bf0ae13	0.00734497
220	0x3eac2192	0.33619362
221	0xbaaf191f	-0.0013358927
222	0x3e4bcfca	0.19903484
223	0x3dc30511	0.09522451
224	0x3f1d715a	0.61501086
225	0xbb5863ce	-0.0033018473
226	0x3e238fa3	0.15972762
227	0x3d6cb7f6	0.057792626
228	0x3d150fe2	0.0363921
229	0xbe2075f9	-0.15670003
230	0x3dd8938c	0.10575017
231	0x3ef301a2	0.47462183
232	0x3e7b4d26	0.24541149
233	0x3f037a97	0.5135893
234	0xbe8de3b0	-0.27712774
235	0x3c0ef63c	0.008725699
236	0xbc4a3b8b	-0.012343298
237	0xbdb84f9b	-0.089995585
238	0x3e882c52	0.26596314
239	0xbc0a7b1a	-0.008452201
240	0x3c0f3ff0	0.008743271
241	0xbb2df0f9	-0.0026541336
242	0xbab90809	-0.0014116775
243	0x3e098690	0.13430238
244	0x3ab5ef0e	0.0013880448
245	0xbdbd3170	-0.09237945
246	0x3e15b751	0.14620711
247	0xbbada267	-0.005298901
248	0xbda9d3bc	-0.08292338
249	0xbc994230	-0.018708318
250	0x3d5cb3f0	0.05388254
251	0xbb1e68c0	-0.0024171323
252	0xbca67463	-0.02031917
253	0x3e522878	0.2052325
254	0x3d8e5fe5	0.06951884
255	0x3ec7e1a0	0.39039326

input_batch_norm.running_mean f4 [256]
0	0x3ed243ee	0.4106745
1	0x3d770df7	0.060316052
2	0x3ec3b4ba	0.3822382
3	0x3daac684	0.08338645
4	0x40fb5376	7.853938
5	0x3e66745b	0.22505324
6	0x3f813772	1.0095046
7	0x400ee996	2.233007
8	0x3fc8a965	1.5676695
9	0x40d78bb0	6.7358017
10	0x3ffe0e25	1.9848067
11	0x3e77f345	0.24213894
12	0x3f9c8fde	1.2231405
13	0x3a882659	0.0010387405
14	0x3f2153ce	0.630185
15	0x3f0990e6	0.5373672
16	0x3ff87606	1.9411018
17	0x3f61bb57	0.8817648
18	0x40557147	3.335039
19	0x3e007088	0.12542927
20	0x410bc3cd	8.735303
21	0x41b583d2	22.689365
22	0x3e103e51	0.14086272
23	0x3f3bde98	0.73386526
24	0x00000004	6e-45
25	0x3f3d391b	0.7391526
26	0x40ef8777	7.485286
27	0x3ee78441	0.4521809
28	0x404b2a10	3.1744423
29	0x3c22ef43	0.00994474
30	0x418c3997	17.52812
31	0x412c9ee9	10.788796
32	0x3f049979	0.5179668
33	0x405962ba	3.3966508
34	0x409e91e2	4.955308
35	0x3eb2e77b	0.3494223
36	0x41df9c89	27.951433
37	0x00000004	6e-45
38	0x00000004	6e-45
39	0x40f40a34	7.6262455
40	0x40dfa214	6.988535
41	0x3fa75797	1.3073605
42	0x405859f3	3.38049
43	0x0e77fe20	3.0567457e-30
44	0x3db86e73	0.090054415
45	0x400801f2	2.1251187
46	0x3f17144c	0.59015346
47	0x40c9da8e	6.307929
48	0x3f841a17	1.0320462
49	0x40049186	2.071382
50	0x40859f25	4.175677
51	0x3f5d903e	0.8654822
52	0x402fa69b	2.7445438
53	0x3f196aeb	0.5992877
54	0x403b3820	2.9253006
55	0x41004369	8.016458
56	0x3e0ed4d7	0.1394838
57	0x3f7af3c4	0.98028207
58	0x3fd87dca	1.6913388
59	0x3f9808e8	1.1877718
60	0x40df3c7c	6.9761333
61	0x3eb6fc0c	0.35739172
62	0x1b32a44d	1.4776903e-22
63	0x40339924	2.806222
64	0x3ed1a070	0.40942717
65	0x3f3fa221	0.74856764
66	0x3e7fba30	0.24973369
67	0x3f35418e	0.70803154
68	0x3ebb3bac	0.36568964
69	0x3e69c23f	0.22828005
70	0x3fe016a1	1.7506906
71	0x00000004	6e-45
72	0x3b96bff7	0.0046005207
73	0x403af8fb	2.9214466
74	0x3fe23db8	1.7675085
75	0x40bb499a	5.8527346
76	0x40cc0821	6.3759923
77	0x416eff18	14.937279
78	0x3ee092c2	0.43861967
79	0x408277a3	4.077104
80	0x40be0e3d	5.939238
81	0x3f3979d3	0.72451514
82	0x3fc37190	1.5269032
83	0x40863c9b	4.194898
84	0x3fe536f8	1.79074
85	0x41a62035	20.765726
86	0x405db249	3.4640067
87	0x3e6dc11a	0.23218194
88	0x3e094c5c	0.13408035
89	0x40581b2e	3.376659
90	0x4071c528	3.7776585
91	0x00000004	6e-45
92	0x3f17a0bc	0.59229636
93	0x3eaf3d77	0.3422658
94	0x40afb4be	5.4908133
95	0x40b30266	5.594043
96	0x3fa55323	1.2915996
97	0x41a9e595	21.2371
98	0x3ffa99f8	1.9578238
99	0x00000004	6e-45
100	0x403e6a24	2.9752283
101	0x3f0a072a	0.5391718
102	0x407c18a3	3.9390037
103	0x4189b338	17.21251
104	0x40a9a891	5.301827
105	0x3f88ba8a	1.0681927
106	0x41a1eaca	20.239643
107	0x3e6329fd	0.22183986
108	0x3fb74d1a	1.4320405
109	0x405ed0fd	3.4815056
110	0x404bcd2e	3.1843982
111	0x3e41afff	0.18914793
112	0x4110b577	9.044303
113	0x3f6da20f	0.92825407
114	0x409eb777	4.9598956
115	0x400dc28d	2.2149994
116	0x416c9bd2	14.788042
117	0x3ef0ac86	0.47006625
118	0x3d1b96cb	0.037985604
119	0x3e404b9a	0.1877884
120	0x3c699573	0.014256823
121	0x3ffa53e4	1.9556851
122	0x3fb7e72a	1.4367421
123	0x3fd184e4	1.636868
124	0x4133f3d3	11.247027
125	0x4114ecd3	9.307818
126	0x3d812cb3	0.06307354
127	0x3d9e765f	0.07737421
128	0x3eb4d221	0.35316566
129	0x40a3d8bc	5.120207
130	0x3f81dd52	1.0145667
131	0x00000004	6e-45
132	0x3f93bc00	1.1541748
133	0x409133a5	4.5375543
134	0x3fc7aa44	1.5598836
135	0x411c7fb2	9.781176
136	0x3636e378	2.7252518e-06
137	0x4085cdb8	4.181362
138	0x400b4c70	2.1765404
139	0x404a0ba6	3.156961
140	0x41442696	12.25942
141	0x3f3890fb	0.7209622
142	0x4000b2a2	2.010903
143	0x3f9ec03c	1.2402415
144	0x3f96e5ea	1.1788914
145	0x3f2090c9	0.62720925
146	0x3ede4225	0.4340984
147	0x3ff6a7f0	1.927
148	0x00000004	6e-45
149	0x41152a84	9.32288
150	0x3f3d486b	0.73938626
151	0x3f5084b7	0.81452507
152	0x408dad8a	4.427434
153	0x4192f1a5	18.36799
154	0x3f9378b4	1.1521211
155	0x3f0dbe08	0.5536809
156	0x3fd38a9c	1.6526675
157	0x41a7b18e	20.961697
158	0x41f182e4	30.188911
159	0x3f43dc61	0.76508147
160	0x401293f0	2.2902794
161	0x4023299d	2.5494149
162	0x231aac07	8.384785e-18
163	0x40142e1d	2.3153145
164	0x409f7812	4.983407
165	0x410d4d9f	8.83145
166	0x4200fe74	32.24849
167	0x3f5b3d67	0.8564057
168	0x407af2a8	3.9210606
169	0x4068c5d0	3.6370735
170	0x3f32796c	0.69716525
171	0x405eb099	3.4795287
172	0x41a1b8a4	20.215157
173	0x405eefdd	3.48339
174	0x3fa60774	1.2971025
175	0x40fceecd	7.9041505
176	0x3fa31768	1.2741518
177	0x4061ef7c	3.530242
178	0x3fb7bb88	1.4354105
179	0x40e2e7fe	7.0908194
180	0x4073dbd4	3.8102922
181	0x40304454	2.7541704
182	0x404fbd43	3.2459266
183	0x419c6360	19.548523
184	0x3f865a74	1.0496354
185	0x400f0615	2.2347462
186	0x00000004	6e-45
187	0x3e8ae6df	0.27129266
188	0x00000004	6e-45
189	0x3f4e5414	0.80597043
190	0x40049486	2.0715652
191	0x00000004	6e-45
192	0x00000004	6e-45
193	0x40c0242c	6.0044155
194	0x00000004	6e-45
195	0x408806e3	4.2508407
196	0x3f28e210	0.65969944
197	0x3f166049	0.5874067
198	0x3ffa2254	1.9541726
199	0x3f4a5af2	0.7904502
200	0x3e58b621	0.21163227
201	0x409972d3	4.7952666
202	0x41827500	16.307129
203	0x4114ad3c	9.292294
204	0x41944b37	18.536726
205	0x3f1d7198	0.61501455
206	0x3bee112a	0.0072652297
207	0x41afa98f	21.957792
208	0x00000004	6e-45
209	0x3fd738a5	1.6814162
210	0x40b57b02	5.6712656
211	0x3f0db75e	0.5535792
212	0x3fbc48fd	1.4709774
213	0x3fe1156f	1.7584666
214	0x419c6f18	19.554245
215	0x3f82193a	1.0163949
216	0x3f9f9973	1.2468704
217	0x41451188	12.31678
218	0x40122d80	2.284027
219	0x00000004	6e-45
220	0x40bcaffe	5.8964834
221	0x0e673161	2.8496723e-30
222	0x418c73bd	17.556513
223	0x3d9816b3	0.074262045
224	0x40a8267b	5.2546973
225	0x3e7ca8ba	0.24673739
226	0x400046a5	2.0043118
227	0x3ec2485a	0.37945825
228	0x3f5c7e68	0.8613038
229	0x3f53a216	0.826692
230	0x41003035	8.011769
231	0x41820a1b	16.254934
232	0x3f810488	1.0079508
233	0x41556b0b	13.338634
234	0x3f4862e5	0.782759
235	0x3f7d3ab5	0.98917705
236	0x417ea7c0	15.915955
237	0x405c73e3	3.4445732
238	0x40bce811	5.9033284
239	0x3f609765	0.8773101
240	0x405a5acc	3.4117918
241	0x3fdcfd99	1.7264892
242	0x40264e38	2.598524
243	0x3f0d8d46	0.5529369
244	0x00000004	6e-45
245	0x3e98b96c	0.29828966
246	0x3fff253d	1.9933239
247	0x4094f809	4.6552777
248	0x3e8dc785	0.27691284
249	0x40b5e871	5.684624
250	0x3e3f8bb8	0.18705642
251	0x2a4eddcb	1.8373425e-13
252	0x3dc7e964	0.097613126
253	0x4036cafd	2.8561394
254	0x3fa31c12	1.2742941
255	0x4170fa5f	15.061126

input_batch_norm.running_var f4 [256]
0	0x40504b7a	3.2546067
1	0x3e8744b9	0.2641962
2	0x40155515	2.333318
3	0x3f09a281	0.53763586
4	0x43236cfb	163.4257
5	0x3feb42fe	1.8379819
6	0x410e4ffb	8.8945265
7	0x4229c67c	42.443832
8	0x41644986	14.26795
9	0x426fd4ea	59.957924
10	0x419e995a	19.824879
11	0x3fd30640	1.6486282
12	0x400d0d7e	2.2039485
13	0x3a533f84	0.0008058476
14	0x40e6b014	7.208994
15	0x40a756cd	5.229346
16	0x41ce8069	25.8127
17	0x40f16abd	7.5442796
18	0x4291c1f6	72.87883
19	0x3f71d8fb	0.9447171
20	0x430cb264	140.69684
21	0x428afa76	69.48918
22	0x3f83f53a	1.0309212
23	0x3ff55908	1.9167795
24	0x00000004	6e-45
25	0x40b56052	5.668008
26	0x42b45dbd	90.18308
27	0x4069ec62	3.6550527
28	0x42080d1a	34.012794
29	0x3d1866eb	0.037207525
30	0x4401fb01	519.92194
31	0x42b0ddf6	88.43352
32	0x40906e6a	4.5134783
33	0x41fa358f	31.276152
34	0x428bf231	69.97303
35	0x402d820c	2.7110624
36	0x42a64e1e	83.15257
37	0x00000004	6e-45
38	0x00000004	6e-45
39	0x42ca1c70	101.05554
40	0x427d722d	63.3615
41	0x418e9583	17.823004
42	0x42b9801d	92.75022
43	0x0f1c8149	7.716293e-30
44	0x3f122727	0.5709099
45	0x41a494da	20.572681
46	0x406da12a	3.7129617
47	0x42b45748	90.17047
48	0x4147d45d	12.4893465
49	0x41b5ecff	22.74072
50	0x412a9f62	10.663912
51	0x411952b7	9.582694
52	0x422c95be	43.146233
53	0x409279b3	4.577356
54	0x41de097f	27.754637
55	0x42ca422f	101.129265
56	0x3f7aaac6	0.9791683
57	0x3fc4593f	1.5339736
58	0x41a8f64f	21.120268
59	0x41421be3	12.131808
60	0x42f34486	121.633835
61	0x404b1e54	3.173726
62	0x19983534	1.573792e-23
63	0x4242b1b8	48.673553
64	0x4073090b	3.797427
65	0x40b70394	5.719187
66	0x40043f29	2.066355
67	0x40edbdbd	7.4294114
68	0x402a759a	2.6634278
69	0x3fd2d21c	1.647037
70	0x40b9c5ce	5.805396
71	0x00000004	6e-45
72	0x3c76ed44	0.015071217
73	0x422a8265	42.62734
74	0x41abfa8c	21.497337
75	0x42c47f53	98.24868
76	0x4290fb4b	72.49081
77	0x42aabef8	85.372986
78	0x4047abb3	3.1198547
79	0x41b81b31	23.013277
80	0x419491ee	18.571255
81	0x40ead132	7.3380365
82	0x41c7048e	24.877224
83	0x41d251ec	26.29
84	0x418a694f	17.30142
85	0x4328af69	168.6852
86	0x405eb4c1	3.4797823
87	0x40136a48	2.303362
88	0x3f5536a2	0.8328649
89	0x424a4751	50.569645
90	0x425d5f3b	55.343
91	0x00000004	6e-45
92	0x40a68e6b	5.204885
93	0x40072f54	2.1122637
94	0x420fea64	35.978897
95	0x422885a9	42.130527
96	0x416b4d8a	14.70643
97	0x442f567d	701.3514
98	0x41a4e20a	20.61037
99	0x00000004	6e-45
100	0x425fb0a2	55.922493
101	0x40920269	4.562794
102	0x424eb589	51.67728
103	0x43e583ea	459.03058
104	0x42b4c822	90.390884
105	0x416bbf6d	14.734235
106	0x441c3cbd	624.94904
107	0x3fef222b	1.8682302
108	0x41413236	12.074759
109	0x407fffeb	3.999995
110	0x42133953	36.80598
111	0x3f83dd88	1.0301981
112	0x42b77789	91.73347
113	0x40f9ca69	7.8059583
114	0x4298a857	76.32879
115	0x422089e2	40.13465
116	0x420612fa	33.51853
117	0x40745ab7	3.8180368
118	0x3e16ebe6	0.14738426
119	0x3fb19f11	1.3876668
120	0x3da0fac4	0.0786033
121	0x418586a4	16.690742
122	0x417c42ea	15.766336
123	0x41ec2488	29.517838
124	0x434f2bcf	207.17113
125	0x433de756	189.90366
126	0x3ec15d8e	0.3776669
127	0x3efbfc38	0.49215865
128	0x4066c20d	3.605594
129	0x4299a430	76.82068
130	0x415c9f83	13.788943
131	0x00000004	6e-45
132	0x4125b778	10.357292
133	0x42270f88	41.765167
134	0x416834ac	14.512859
135	0x43772312	247.137
136	0x352b058c	6.3710536e-07
137	0x4269b179	58.423313
138	0x419cb0c1	19.586306
139	0x42952f3b	74.59225
140	0x43251a26	165.10214
141	0x409ab9d1	4.8351827
142	0x41b4a9c1	22.582888
143	0x412a1de1	10.632295
144	0x418b6dcd	17.428614
145	0x40f9e680	7.809387
146	0x4068ddec	3.638545
147	0x414b3baf	12.702071
148	0x00000004	6e-45
149	0x4300e695	128.90071
150	0x410ae314	8.680439
151	0x40fdef11	7.935433
152	0x41f28767	30.316114
153	0x441f0f76	636.2416
154	0x41270216	10.438009
155	0x40ccf4be	6.4048758
156	0x41b31d29	22.389238
157	0x44451aad	788.4168
158	0x4336da94	182.85382
159	0x40dd24a4	6.9107227
160	0x422048a9	40.070957
161	0x42019e65	32.404682
162	0x22d86e3f	5.8663645e-18
163	0x42088ad1	34.135563
164	0x42e03f5f	112.12377
165	0x42f56a07	122.707085
166	0x4299d80c	76.92197
167	0x4106763c	8.403866
168	0x41ee9dee	29.827114
169	0x41ef921d	29.946344
170	0x40dc632d	6.8871064
171	0x424b41bf	50.814205
172	0x44315252	709.28625
173	0x427af14f	62.735653
174	0x419108f6	18.129375
175	0x421a55b2	38.583687
176	0x4142e164	12.180027
177	0x42621d3e	56.528557
178	0x41186491	9.524552
179	0x428ee0ef	71.43932
180	0x419c3a25	19.52839
181	0x4244d4c8	49.207794
182	0x41fc605c	31.54705
183	0x441af51e	619.82996
184	0x40f4ec1a	7.653821
185	0x418db435	17.712992
186	0x00000004	6e-45
187	0x3ffe6bbb	1.9876627
188	0x00000004	6e-45
189	0x40f73ac2	7.7259226
190	0x42023fcf	32.562313
191	0x00000004	6e-45
192	0x00000004	6e-45
193	0x4200e308	32.22171
194	0x00000004	6e-45
195	0x4292428a	73.12996
196	0x409ddcb8	4.933193
197	0x40b52f32	5.662011
198	0x4194e63c	18.61242
199	0x4110f419	9.059594
200	0x3ff48475	1.9102923
201	0x4226e128	41.71988
202	0x42d563dd	106.695045
203	0x435e013c	222.00482
204	0x4420d283	643.28925
205	0x40ac0a04	5.3762226
206	0x3c45b17e	0.012066243
207	0x4326453e	166.27048
208	0x00000004	6e-45
209	0x418a0b80	17.255615
210	0x4283cdd5	65.902016
211	0x40b30d87	5.5954013
212	0x41854695	16.659464
213	0x4169da0a	14.615732
214	0x4431b1f0	710.7803
215	0x40c65697	6.19807
216	0x410335b0	8.200607
217	0x4398895f	305.0732
218	0x418cf82c	17.621178
219	0x00000004	6e-45
220	0x4322fbf9	162.98427
221	0x0f0804f3	6.706271e-30
222	0x423bcb5f	46.948605
223	0x3efe4eff	0.49669644
224	0x42809767	64.29571
225	0x405ce674	3.4515657
226	0x41aede93	21.858679
227	0x40289113	2.6338546
228	0x40ef0eba	7.4705477
229	0x4147ddbc	12.491634
230	0x42e519ef	114.55065
231	0x4401a0cb	518.5124
232	0x4104c121	8.297151
233	0x43b38a96	359.0827
234	0x4110342a	9.012735
235	0x40f0bb59	7.5228696
236	0x42cefc20	103.49243
237	0x429d876c	78.764496
238	0x42f90b94	124.52261
239	0x410e6978	8.900749
240	0x427ab8bb	62.6804
241	0x41839cf4	16.451637
242	0x4229a168	42.407623
243	0x40658cbb	3.5867145
244	0x00000004	6e-45
245	0x40345945	2.8179486
246	0x4153b227	13.230994
247	0x4295fdaf	74.995476
248	0x400b0569	2.1722052
249	0x4293df11	73.93568
250	0x3f8bf136	1.0932987
251	0x29889669	6.065705e-14
252	0x3f1554c3	0.5833246
253	0x423defdf	47.48425
254	0x41924adf	18.286558
255	0x4427c3cf	671.0595

layers.0.weight f4 [256, 258]
0	0xbece74b1	-0.40323403
1	0xbe4c1230	-0.19928813
2	0x3cf8d5e6	0.030375432
3	0xbeb8875a	-0.36040765
4	0xbeac949e	-0.33707136
5	0xbe89c9a0	-0.2691164
6	0x3ec1d2bb	0.37856087
7	0xbeb09647	-0.34489653
8	0xbf4844ce	-0.7822999
9	0xbbc54ff1	-0.0060214926
10	0xbe3c6c6e	-0.18400738
11	0x3e8aef08	0.2713549
12	0xbf0e0879	-0.5548168
13	0xbe417c3f	-0.18895052
14	0xbdf39676	-0.118939325
15	0xbe2fb7e6	-0.17159995
16	0x3ed2befa	0.4116133
17	0xbd879b6b	-0.066214405
18	0xbe88ca14	-0.26716673
19	0x3b0c2cb1	0.0021388943
20	0x3d6a01be	0.057130568
21	0xbd109caf	-0.035305675
22	0xbeb47840	-0.35247993
23	0x3e865caa	0.26242572
24	0x3d6434b9	0.055714343
25	0xbf88dac8	-1.0691767
26	0xbe31746c	-0.17329568
27	0xbe7812e7	-0.2422596
28	0xbf739fdb	-0.95165795
29	0x3cd4432a	0.025910933
30	0x3a9ca641	0.0011951403
31	0x3e379e45	0.17931469
32	0xbeba7939	-0.3642061
33	0xbdca88f7	-0.09889405
34	0xbde22934	-0.11043015
35	0xbe9ee0e1	-0.31030944
36	0xbe22bffb	-0.15893547
37	0xbccd498b	-0.025059482
38	0xbe1b1109	-0.15143217
39	0xbddf2f40	-0.10897684
40	0xbf02a3db	-0.51031274
41	0xbea9d916	-0.33173436
42	0x3e7a5a74	0.24448568
43	0xbe491e6d	-0.19640513
44	0xbec579b3	-0.38569412
45	0xbdb89b34	-0.09013978
46	0xbee1841e	-0.4404611
47	0xbd85aefc	-0.06527516
48	0xbd1f8d40	-0.038953066
49	0xbdcbdb29	-0.09953911
50	0xbe1f7679	-0.15572537
51	0xbe6ee02d	-0.23327704
52	0x3ba474cb	0.0050188056
53	0xbec607e2	-0.3867789
54	0xbed2ebbf	-0.41195485
55	0xbddb88e3	-0.107194684
56	0x3ca0412c	0.019562326
57	0xbd4e5bff	-0.050380703
58	0xbe7fdca4	-0.24986511
59	0xbe8c6ff2	-0.27429157
60	0xbf1d65ed	-0.6148365
61	0x3ea43f50	0.32079554
62	0xbe6678bc	-0.22506994
63	0xbe05caf5	-0.13065703
64	0xbdacd21a	-0.08438511
65	0x3c868c6c	0.01642438
66	0xbea19afe	-0.31563562
67	0xbe9683d5	-0.29397455
68	0x3e1264a4	0.14296204
69	0xbf242e22	-0.64132893
70	0xbefa2867	-0.4885895
71	0xbe253740	-0.16134357
72	0xbd9b4cbc	-0.07582995
73	0x3e889308	0.26674676
74	0x3b198a1a	0.0023428262
75	0xbea650c1	-0.32483485
76	0xbb52ac94	-0.0032146322
77	0x3e157c49	0.14598192
78	0x3e0f8272	0.14014605
79	0xbdce0396	-0.10059278
80	0xbe149c2a	-0.14512697
81	0xbe29eea4	-0.1659494
82	0x3e5648df	0.20926236
83	0xbf30f96e	-0.691306
84	0xbe75b1ee	-0.23993656
85	0xbd9e98bf	-0.07743978
86	0x3ead0898	0.3379562
87	0xbe0d7e43	-0.13817696
88	0x3db63292	0.08896364
89	0xbe220e39	-0.15825738
90	0xbf0db43a	-0.5535313
91	0x3d9fecd8	0.07808846
92	0x3d3767bd	0.044776667
93	0x3e30554c	0.17220038
94	0xbe4964cc	-0.19667357
95	0x3b77068b	0.003769311
96	0xbe4ae37c	-0.19813341
97	0xbcb0dbd1	-0.021589192
98	0xbe17594d	-0.1478016
99	0xbe0d600a	-0.13806167
100	0xbe34d6df	-0.17660092
101	0x3d2adad8	0.041712612
102	0x3e1a34c0	0.15059185
103	0xbe4c85a5	-0.19972856
104	0xbd9cbc0b	-0.07653054
105	0xbedbd94a	-0.42939216
106	0xbf21a188	-0.631371
107	0xbd8d3e21	-0.06896616
108	0x3dc47f31	0.09594572
109	0x3e8a4aa4	0.2701007
110	0xbd06b4bb	-0.0328872
111	0xbea6e9b5	-0.3260018
112	0xbe071db0	-0.13194919
113	0xbec9cd01	-0.39414218
114	0xbeb70620	-0.3574686
115	0xbebfad49	-0.37436894
116	0xbf0b86e0	-0.5450268
117	0xbe72d95a	-0.23715726
118	0x3e0f423e	0.13990113
119	0xbdccf216	-0.10007112
120	0x3db90013	0.09033217
121	0x3e47ac15	0.19499238
122	0xbe9cf27c	-0.3065375
123	0x3e5ece84	0.21758467
124	0xbdbf6884	-0.09346107
125	0x3eb142c7	0.3462126
126	0xbd59a5f0	-0.053136766
127	0xbee84f67	-0.4537308
128	0xbe9f0b38	-0.31063247
129	0x3a6d01da	0.00090411084
130	0x3df8dbf1	0.121513255
131	0x3d2b3906	0.04180243
132	0xbece2c12	-0.40267998
133	0xbf7d78b1	-0.99012285
134	0xbf1f77ca	-0.6229216
135	0xbcd56d58	-0.026053116
136	0xbd72730f	-0.05919176
137	0xbcdb96cf	-0.02680531
138	0xbeaefcfc	-0.34177387
139	0xbdc2b233	-0.09506645
140	0xbe2d13a3	-0.16902022
141	0xbee02d81	-0.43784717
142	0xbed85480	-0.42251968
143	0xbf1581e9	-0.5840135
144	0x3d88b7e3	0.066756986
145	0xbe5bbcc5	-0.21458729
146	0x3e51bed5	0.20482953
147	0x3df9bb14	0.121938854
148	0xbe5cb867	-0.21554719
149	0x3ce86635	0.028369049
150	0x3d8b5572	0.06803407
151	0xbc7e60a9	-0.015525975
152	0xbf2f9243	-0.6858255
153	0xbf0f3dce	-0.5595368
154	0x3d1a19b7	0.03762218
155	0x3de36bf1	0.111045726
156	0x3e7a25be	0.2442846
157	0xbf0242b5	-0.50883037
158	0xbe7502b2	-0.2392681
159	0x3dfab958	0.12242383
160	0xbe23d570	-0.15999389
161	0x3da67b02	0.08128931
162	0xbeb932dc	-0.36171615
163	0xbf0c5a6e	-0.54825485
164	0x3e320d7a	0.17387953
165	0xbc2bab35	-0.010477831
166	0xbe9c8b1a	-0.30574876
167	0xbdc2e0dc	-0.09515545
168	0xbb9698bb	-0.0045958436
169	0xbe712c4c	-0.23552054
170	0x3dc36e95	0.09542576
171	0xbeb81c53	-0.3595911
172	0xbf213e43	-0.6298563
173	0x3e716ed6	0.23577437
174	0x3e0a0f6a	0.13482442
175	0xbef9d54c	-0.48795545
176	0xbd495011	-0.049148623
177	0xbe0d4a6f	-0.13797925
178	0xbd6ed864	-0.058311835
179	0xbe03ffd3	-0.12890558
180	0xbf194423	-0.59869593
181	0x3e1b254e	0.1515095
182	0x3e65e788	0.22451603
183	0xbf46c297	-0.7764067
184	0xbe910af0	-0.28328657
185	0x3d63fd54	0.055661514
186	0xbd8a19ef	-0.06743228
187	0xbf2ed18e	-0.68288505
188	0xbe036e4b	-0.12835042
189	0xbd78741e	-0.060657613
190	0x3d9f2130	0.07770002
191	0x3db54105	0.08850292
192	0x3bc6888a	0.006058757
193	0xbe6079c9	-0.21921457
194	0x3e65a0fd	0.22424693
195	0xbdbe7ae1	-0.09300781
196	0xbe489d15	-0.19591172
197	0x3e84ff87	0.25976202
198	0xbdc480ed	-0.09594903
199	0xbdd26055	-0.1027228
200	0xbe13fbce	-0.14451525
201	0x3d928ee0	0.071561575
202	0xbcbec56d	-0.0232875
203	0x3e84d534	0.2594391
204	0xbd157c0f	-0.036495265
205	0xbb8c219b	-0.004276467
206	0x3deaba18	0.11461276
207	0xbe5f4309	-0.21802916
208	0xbd4edab9	-0.05050156
209	0xbd790ab2	-0.060801215
210	0xbdc612bf	-0.09671544
211	0x3d3d890a	0.04627327
212	0xbf10c353	-0.5654804
213	0xbe24fe59	-0.16112651
214	0xbf1e6f8b	-0.6188895
215	0x3eab87c3	0.33502015
216	0xbebe098c	-0.3711666
217	0xbe7f7d52	-0.2495015
218	0xbf0fc3b5	-0.56158
219	0xbd446b45	-0.047953863
220	0xbeb77906	-0.3583452
221	0x3b954a02	0.0045559416
222	0xbe2ffc11	-0.17186
223	0xbdb4dac0	-0.08830786
224	0x3c4414d6	0.011967858
225	0xbe68ad70	-0.22722411
226	0xbde4231a	-0.111395076
227	0xbe3fbfda	-0.1872553
228	0xbeab1a21	-0.33418372
229	0xbd7a248e	-0.061070018
230	0xbe45506d	-0.19268961
231	0xbf317733	-0.6932251
232	0xbe87d06c	-0.265262
233	0xbe1dd74b	-0.15414159
234	0x3da5e462	0.08100201
235	0xbf1404ec	-0.5782001
236	0xbd0736a0	-0.03301108
237	0xbe644b19	-0.22294272
238	0xbf19ab91	-0.60027415
239	0xbeda8ca6	-0.4268543
240	0x3d347c2c	0.044063732
241	0xbeafb19b	-0.3431519
242	0xbf149c92	-0.5805141
243	0x3e88a431	0.26687768
244	0x3e2faba3	0.17155318
245	0x3e504955	0.20340474
246	0xbf0d73ea	-0.55254996
247	0xbd42c60c	-0.047552153
248	0xbde9f478	-0.11423582
249	0xbe23de51	-0.16002776
250	0xbee8e75c	-0.45489013
251	0x3e2eb84b	0.1706249
252	0x3e23f820	0.16012621
253	0xbf0797ca	-0.52965987
254	0xbed14b4a	-0.40877753
255	0x3d8d9a4b	0.06914195
