p3_collab-compet/checkpoint_actor.pth (torch, 161231 bytes, 24 tensors)

layers.0.weight f4 [128, 24]
0	0x3cf0e24f	0.029404787
1	0x3c70e505	0.01470304
2	0xbd96b056	-0.07357852
3	0xbd29b40c	-0.04143147
4	0x3dfcbf04	0.12341121
5	0x3cc6daf3	0.024274325
6	0xbd28422e	-0.04107874
7	0xbd19dfb9	-0.037566874
8	0x3dfeaae0	0.124349356
9	0xbcf06d13	-0.029348886
10	0xbcf88ea5	-0.030341456
11	0x3e0c8130	0.13721156
12	0x3cb61f9e	0.022231873
13	0x3bcb8c25	0.006211775
14	0xbcc20879	-0.02368568
15	0xbd44abd1	-0.04801542
16	0xbd5b9de1	-0.053617362
17	0x3d67eaf9	0.05662057
18	0x3cde9a16	0.027173083
19	0xbdf58eea	-0.11990149
20	0xbd1098bd	-0.035301913
21	0x3ca951e4	0.020668931
22	0x3c18c768	0.009324886
23	0x3c1c89c9	0.009554335
24	0x3dc4e153	0.0961329
25	0x3ef4c5d0	0.4780717
26	0x3c9248f1	0.017857047
27	0xbebf8402	-0.374054
28	0xbe588e6d	-0.21148081
29	0xbe9d68d6	-0.30744046
30	0x3e912012	0.2834478
31	0xbe936574	-0.2878834
32	0x3e2af3b5	0.1669453
33	0x3d35cf86	0.044387363
34	0xbdb38d7e	-0.08767222
35	0xbdf2ea49	-0.118610926
36	0xbe951783	-0.291195
37	0x3dbfbd71	0.09362305
38	0x3d87fc51	0.066399224
39	0xbe8502b2	-0.2597862
40	0x3d4558cc	0.048180386
41	0x3e7b647d	0.24550052
42	0x3e1df7a1	0.15426494
43	0xbe980dff	-0.29698178
44	0x3da3703b	0.07980391
45	0x3f9a5ad4	1.2058969
46	0x3e2c3fb9	0.16821183
47	0xbe726d6a	-0.2367455
48	0xbe375f30	-0.17907405
49	0x3dfd51c0	0.12369108
50	0x3f146d83	0.579796
51	0x3dfba01e	0.12286399
52	0x3d4c2ca3	0.049847256
53	0xbdaf7311	-0.08566869
54	0x3ef906ab	0.486379
55	0x3dc33b0f	0.09532749
56	0xbe1b055c	-0.15138763
57	0x3e5747b1	0.21023442
58	0x3e993e5a	0.29930383
59	0xbe10477b	-0.14089768
60	0xbd11203d	-0.035431135
61	0xbdc3fa1f	-0.09569191
62	0x3e7668b9	0.24063386
63	0xbe089663	-0.13338618
64	0xbf4b38c4	-0.7938349
65	0x3e32ae6b	0.17449348
66	0xbf68abe5	-0.9088729
67	0x3f0242cc	0.50883174
68	0xbdc1104c	-0.094269365
69	0xbe33c3c2	-0.17555144
70	0xbf867e4b	-1.0507292
71	0x3edbd933	0.42939147
72	0x3e932ebe	0.287466
73	0x3db51deb	0.08843597
74	0x3d7cb969	0.06170026
75	0x3eb6d3ee	0.35708565
76	0x3f404d3e	0.7511786
77	0x3e8da093	0.2766157
78	0xbb9da8fe	-0.004811405
79	0x3ed13901	0.40863803
80	0x3ea018f5	0.3126904
81	0x3e6fffc5	0.23437412
82	0x3cd9abe0	0.026571214
83	0x3c69eb21	0.0142772505
84	0x3f0e5b5a	0.5560814
85	0x3eadc2ac	0.33937585
86	0xbc6c76a1	-0.01443258
87	0x3d84b10c	0.064790815
88	0x3da5a24d	0.08087597
89	0x3e25d601	0.16194917
90	0xbe17dfbd	-0.14831443
91	0xbd76be86	-0.06024029
92	0x3f3d8f93	0.740472
93	0x3ea4ad3e	0.32163423
94	0xbe507309	-0.20356382
95	0xbd25c1b6	-0.04046794
96	0x3ea28e72	0.31749302
97	0x3d5776de	0.052603595
98	0xbeb92dd5	-0.3616778
99	0x3e877eec	0.2646402
100	0x3cb61717	0.022227807
101	0xbd94b28d	-0.07260618
102	0xbe4b994e	-0.198827
103	0x3e3d3e85	0.1848088
104	0xbc819a6e	-0.015820708
105	0x3d27a9df	0.040933486
106	0xbf81dfb7	-1.0146397
107	0x3e067074	0.13128835
108	0xbe6fd428	-0.23420775
109	0xbe751c5d	-0.23936601
110	0xbf632e12	-0.8874217
111	0x3d55b8f1	0.052178327
112	0x3e3cfbae	0.18455383
113	0x3dbec1c7	0.09314304
114	0x3f5141ca	0.8174101
115	0xbdc79c1e	-0.09746574
116	0xbe2edf23	-0.17077307
117	0x3d48e2f6	0.04904457
118	0x3f83dcbb	1.0301737
119	0xbe6a8f06	-0.22906122
120	0xbe7820a0	-0.24231195
121	0xbe0ec3ad	-0.13941832
122	0xbd8b7eea	-0.06811316
123	0x3e1ffef5	0.15624602
124	0x3d02129e	0.031756036
125	0x3e8395e3	0.25700292
126	0x3e0832d8	0.13300645
127	0x3ea5cb8d	0.3238186
128	0xbf0117e6	-0.5042709
129	0xbb53d116	-0.003232067
130	0xbed9639e	-0.42458814
131	0x3efb6d57	0.49106857
132	0xbdd552dc	-0.10416195
133	0xbeb9d908	-0.36298394
134	0xbe3bc7cd	-0.18337937
135	0x3eff8967	0.49909517
136	0xbf9e7f92	-1.2382681
137	0x3daf760c	0.085674375
138	0xbd853337	-0.06503909
139	0x3e1800ed	0.14844103
140	0xbe46de10	-0.19420648
141	0xbcfa4936	-0.030552488
142	0x3d5dffe2	0.054199107
143	0x3e198b0d	0.1499445
144	0x3f2d88e7	0.6778702
145	0xbce1a37b	-0.027543774
146	0xbd62d9b0	-0.055383384
147	0x3d14632f	0.0362274
148	0x3f15dcc2	0.58539975
149	0xbea38391	-0.31936315
150	0x3d154be7	0.03644934
151	0x3d66eda7	0.056378987
152	0x3f208fb7	0.6271929
153	0xbe8ae124	-0.27124894
154	0xbd90a486	-0.0706263
155	0x3ec634e2	0.3871222
156	0x3e83a4c4	0.25711644
157	0xbe91d1f7	-0.28480503
158	0x3e02ebbc	0.12785238
159	0x3e89cb04	0.269127
160	0x3e032111	0.12805583
161	0xbd575759	-0.052573536
162	0xbe454e5b	-0.19268171
163	0x3e5ee068	0.21765292
164	0x3d505305	0.050860424
165	0x3e221f1c	0.1583218
166	0xbdf3bf35	-0.11901704
167	0x3e06aaf8	0.13151157
168	0x3e36b925	0.17844065
169	0x3e487581	0.19576074
170	0x3b7c76e8	0.0038523022
171	0xbe31cd8a	-0.17363563
172	0x3f0a7a9f	0.54093355
173	0xbf01dbdc	-0.50726104
174	0x3d3ba3a5	0.04581036
175	0xbe20dc5c	-0.1570906
176	0xbbb493cd	-0.0055107833
177	0xbd2d4c57	-0.04230913
178	0xbee70ea2	-0.4512835
179	0x3e730023	0.23730521
180	0x3d73795b	0.059441905
181	0xbe7a9b85	-0.24473388
182	0xbe49880f	-0.19680808
183	0x3e3bc5ca	0.1833717
184	0xbbc49863	-0.005999611
185	0x3e879e59	0.26487997
186	0xbe03b564	-0.12862164
187	0x3e14c251	0.14527251
188	0xbd8ac2d1	-0.067754395
189	0x3f15ae20	0.5846882
190	0xbc22f8c5	-0.009947007
191	0x3da370cf	0.07980501
192	0x3e0e6ad7	0.13907944
193	0x3cd15c85	0.025556812
194	0xbde80235	-0.11328546
195	0x3cc54981	0.024082901
196	0xbe94043b	-0.28909478
197	0x3e0c2675	0.13686545
198	0xbe48215d	-0.19543977
199	0xbdca94e8	-0.09891683
200	0x3e1ec216	0.15503725
201	0xbd6e47f0	-0.058174074
202	0x3da5dc9e	0.0809872
203	0xbd2e0604	-0.042486206
204	0x3d6a5c11	0.057216708
205	0x3e2209a4	0.1582399
206	0x3e274a30	0.16336894
207	0xbce8274a	-0.028339047
208	0x3e705762	0.23470834
209	0xbc451ce4	-0.012030814
210	0xbd3f6e1e	-0.046735875
211	0xbdaad002	-0.083404556
212	0x40009b2a	2.0094705
213	0xbdd89dd1	-0.10576976
214	0x3d3dfd75	0.046384294
215	0xbc9f8689	-0.019473331
216	0x3da0f17a	0.07858558
217	0xbefec383	-0.4975854
218	0x3e886160	0.2663679
219	0xbecfd311	-0.40590718
220	0xbebea0b8	-0.37231994
221	0x3e4ce025	0.2000738
222	0x3ecb0e48	0.39659333
223	0xbe88731d	-0.26650324
224	0x3e8343dc	0.2563771
225	0xbf37d224	-0.71805024
226	0xbe42e392	-0.19032124
227	0x3e908094	0.28223097
228	0xbed90a47	-0.42390653
229	0x3e659960	0.22421789
230	0x3c9492af	0.01813635
231	0x3e24d435	0.16096576
232	0xbd7ffb1f	-0.062495347
233	0xbef737e6	-0.48284835
234	0x3ce9e19e	0.028549965
235	0xbe93326e	-0.28749412
236	0x3e17ea6f	0.14835523
237	0x3f07821e	0.5293292
238	0x3e186728	0.14883101
239	0xbdf88c25	-0.121361054
240	0x3ed81c20	0.42208958
241	0x3ebe52ac	0.3717245
242	0x3e5b644e	0.21424982
243	0xbf14be8b	-0.58103245
244	0x3edb1f34	0.42797244
245	0xbebac4a7	-0.3647816
246	0x3efe057f	0.49613568
247	0xbed44e20	-0.41465855
248	0x3e8f6d98	0.280133
249	0x3e7027bb	0.23452656
250	0x3dd52daa	0.104091
251	0xbdf32684	-0.11872581
252	0x3dd08058	0.1018073
253	0xbce8984c	-0.028392933
254	0x3e9bf490	0.30460024
255	0xbda65946	-0.08122496

layers.0.bias f4 [128]
0	0xbf0998d1	-0.53748804
1	0xbf1328da	-0.5748421
2	0x3ebe445e	0.37161535
3	0x3d5eec19	0.05442438
4	0xbf0deccf	-0.55439466
5	0xbf08b0d6	-0.5339483
6	0xbf72628c	-0.9468162
7	0xbf49207d	-0.785652
8	0xbe404d10	-0.18779397
9	0xbebea843	-0.37237749
10	0xbed24e0f	-0.4107518
11	0xbe00df5f	-0.1258521
12	0xbf354352	-0.7080585
13	0xbec6d077	-0.3883092
14	0xbe80fe4a	-0.25194007
15	0x3d83294c	0.06404361
16	0xbeb85d34	-0.36008608
17	0xbf11aa93	-0.569009
18	0xbf2be291	-0.6714259
19	0xbe115781	-0.14193536
20	0xbe182c5d	-0.14860673
21	0xbedf7b3e	-0.43648714
22	0xbf54bfa4	-0.8310492
23	0xbe65e1b5	-0.22449382
24	0xbeaa1a4a	-0.33223182
25	0x3e2df88a	0.16989341
26	0xbe5eb1ef	-0.21747564
27	0xbed6b282	-0.41933066
28	0xbf0206f2	-0.5079185
29	0x3e2e2129	0.17004837
30	0x3e4a6cf9	0.19768132
31	0xbf030bcb	-0.5118987
32	0xbefdbd65	-0.4955856
33	0xbf0be97a	-0.5465313
34	0xbf10273c	-0.56309867
35	0xbe8b07e0	-0.27154446
36	0x3e4efc95	0.2021354
37	0xbe46bf90	-0.19409013
38	0xbd6fc3cf	-0.058536347
39	0xbee9b004	-0.45642102
40	0xbeaaa280	-0.33327103
41	0xbf1df21c	-0.61697555
42	0xbc086c02	-0.008326532
43	0x3e8b6243	0.27223405
44	0xbf2b009d	-0.6679781
45	0xbc69500a	-0.014240274
46	0x3e0d63bf	0.13807581
47	0xbe8d18d3	-0.27558002
48	0xbf1fb59d	-0.62386495
49	0xbe57691d	-0.21036191
50	0xbf41e17e	-0.757347
51	0xbef147be	-0.47125047
52	0xbdfd2d97	-0.12362211
53	0x3aa5247d	0.0012599375
54	0xbf163d17	-0.58686966
55	0xbbcc55d1	-0.006235816
56	0xbf4b4872	-0.7940742
57	0xbdae395e	-0.08507036
58	0xbeae4d8f	-0.34043548
59	0xbf038a5f	-0.5138301
60	0xbea7298a	-0.3264888
61	0x3d88ac33	0.066734694
62	0xbf1fa1a5	-0.62356025
63	0xbf594a58	-0.84879065
64	0xbe129327	-0.14313947
65	0x3eb7e444	0.3591634
66	0xbeb31ee4	-0.34984505
67	0xbe7c2a48	-0.24625504
68	0xbee1dbfd	-0.4411315
69	0xbe0d113d	-0.13776107
70	0xbf4ecb75	-0.807792
71	0xbec1d55d	-0.37858096
72	0xbf175e9e	-0.5912875
73	0xbf24dc23	-0.643984
74	0xbe83d5fb	-0.25749192
75	0xbddbaea5	-0.1072667
76	0xbdc30afd	-0.0952358
77	0xbd2c27bc	-0.04203008
78	0xbf1e45a5	-0.6182502
79	0xbe197a42	-0.14988044
80	0xbe8ce0d5	-0.27515283
81	0xbe7bc316	-0.24586138
82	0xbf2fc817	-0.6866469
83	0x3e19e9b0	0.15030551
84	0xbf316405	-0.6929324
85	0xbe8192a3	-0.25307187
86	0xbf207b3d	-0.62688047
87	0x3e88aba2	0.26693445
88	0xbee6b2b3	-0.45058212
89	0xbea35ceb	-0.31906828
90	0xbf3b6900	-0.7320709
91	0x3f366722	0.7125112
92	0xbf08b0ce	-0.5339478
93	0xbf84d34b	-1.0376981
94	0xbf16984a	-0.58826125
95	0x3ca32ca7	0.019918753
96	0xbd9782b6	-0.07397978
97	0xbf2f80a1	-0.6855565
98	0xbf5a57a4	-0.8528998
99	0xbf26886d	-0.6505192
100	0x3e4fd8b1	0.20297505
101	0xbef0a5a8	-0.47001386
102	0xbe995618	-0.29948497
103	0xbf06ed50	-0.5270586
104	0xbe19ffb8	-0.15038955
105	0xbecfea9e	-0.40608686
106	0xbee4c4f2	-0.44681507
107	0xbef80190	-0.48438692
108	0xbe9c9b14	-0.30587065
109	0x3ddf89e9	0.10914976
110	0xbf392975	-0.72328883
111	0xbf823d6a	-1.0174992
112	0xbe9541e3	-0.2915183
113	0xbe5788cb	-0.21048276
114	0xbf511cf9	-0.81684834
115	0xbf240164	-0.6406462
116	0xbf3d0f48	-0.7385144
117	0x3e329543	0.17439751
118	0xbdffed97	-0.124964885
119	0xbf2f83d0	-0.68560505
120	0xbd727435	-0.059192855
121	0xbe4bab45	-0.19889553
122	0xbf44aba3	-0.76824397
123	0x3e23375c	0.15939087
124	0xbe7b4245	-0.24536999
125	0xbe88b97b	-0.2670401
126	0xbe8fbd94	-0.28074324
127	0xbeaa6883	-0.3328286

layers.1.weight f4 [128, 128]
0	0x3f095990	0.53652287
1	0x3e9a61d9	0.30152777
2	0x3e96ed26	0.29477805
3	0xbe539a49	-0.20664324
4	0x3e8f8d67	0.2803757
5	0x3f0dfcf3	0.55464095
6	0xbda1802b	-0.07885774
7	0x3d544f22	0.05183328
8	0xbe9775fc	-0.29582202
9	0x3d8f1d25	0.06987981
10	0x3d44b13e	0.048020594
11	0xbe4b1fb6	-0.19836316
12	0x3e6861f0	0.2269361
13	0xbefd0635	-0.49418798
14	0x3dfe042a	0.12403138
15	0xbe963fea	-0.29345638
16	0x3ec4bcca	0.38425285
17	0xbe958d98	-0.2920959
18	0x3e567334	0.20942384
19	0xbe1001e2	-0.14063218
20	0x3e6b0367	0.22950517
21	0x3ea64885	0.32477203
22	0xbe2f3129	-0.17108597
23	0x3e34c775	0.17654212
24	0xbdc97e21	-0.0983851
25	0xbe893de6	-0.26805037
26	0x3d12435e	0.035708778
27	0x3e90fb42	0.28316694
28	0xbf42a2d0	-0.7602968
29	0xbe20be2c	-0.15697545
30	0x3e19e3eb	0.1502835
31	0xbe39929b	-0.18122332
32	0xbe90ffe8	-0.2832024
33	0x3e9e83e8	0.3096001
34	0x3e9154dc	0.28385055
35	0xbe0bef82	-0.13665584
36	0x3ea8ea6e	0.32991356
37	0x3e3c4aff	0.18387984
38	0x3f154d29	0.5832086
39	0x3daeb5f1	0.08530796
40	0xbda50a5f	-0.08058619
41	0xbd414a7f	-0.047190186
42	0xbe577521	-0.21040775
43	0xbe7c72f7	-0.2465323
44	0xbec26848	-0.37970185
45	0xbe1eeb84	-0.1551953
46	0xbf06a08b	-0.5258872
47	0xbefe8f69	-0.49718788
48	0x3e4c5db8	0.19957626
49	0xbf01ab65	-0.5065215
50	0xbd1dd74c	-0.0385354
51	0xbddb945b	-0.10721656
52	0x3ec6d545	0.38834587
53	0x3d8c0774	0.06837359
54	0x3e0edfa6	0.13952503
55	0x3e412bda	0.18864384
56	0x3f22d6ed	0.636092
57	0x3e6cf3d9	0.23139895
58	0x3f199008	0.599854
59	0x3e318b7d	0.17338367
60	0x3eddfdd5	0.4335772
61	0x3cd94b84	0.026525266
62	0xbe827048	-0.2547629
63	0x3dba5d9c	0.09099886
64	0x3e409073	0.18805103
65	0x3ed21ea6	0.41039008
66	0xbe4577d7	-0.19283997
67	0xbe1a7cef	-0.15086721
68	0x3e025b6c	0.12730187
69	0xbf1b1ff0	-0.6059561
70	0x3e414ffb	0.18878166
71	0x3e9f8609	0.31156948
72	0xbe57c299	-0.21070327
73	0x3c36880a	0.011140833
74	0x3ddfe88e	0.10933028
75	0xbec31f09	-0.38109615
76	0xbedfdfda	-0.43725473
77	0x3d481279	0.048845742
78	0x3dd8804a	0.10571344
79	0xbd2bf444	-0.041980997
80	0x3f1d86a5	0.61533576
81	0xbcf50991	-0.029911788
82	0xbecf0f35	-0.4044129
83	0x3e83d93f	0.25751683
84	0x3dfc332b	0.12314447
85	0xbe0f6f4f	-0.14007305
86	0xbf1b4641	-0.60654074
87	0xbdc75c97	-0.09734457
88	0x3eb5e964	0.35529625
89	0x3daab074	0.08334437
90	0xbe914460	-0.28372478
91	0x3eaf4274	0.34230387
92	0xbd13ea73	-0.03611226
93	0x3d7ad11a	0.06123457
94	0x3f146ca1	0.57978255
95	0xbe88f9c3	-0.26753053
96	0xbe94cb0d	-0.29061165
97	0x3e76cadd	0.24100824
98	0xbf3e7399	-0.7439514
99	0xbd79aece	-0.060957722
100	0x3f13a557	0.57674164
101	0xbee6363b	-0.4496325
102	0xbdf15b97	-0.117850475
103	0xbe029097	-0.12750469
104	0x3d38dcfb	0.04513262
105	0x3e9aab71	0.30208924
106	0x3eb21202	0.34779364
107	0xbe2f7f58	-0.17138422
108	0x3e7c7bfc	0.24656671
109	0x3eca4457	0.39505264
110	0xbebfaa9d	-0.37434855
111	0x3e9d074a	0.30669624
112	0x3e7fadc9	0.24968638
113	0x3e55cc62	0.20878747
114	0x3f63a0a8	0.88917017
115	0xbf0c56d0	-0.54819965
116	0x3e70860b	0.23488633
117	0x3ebfd0ce	0.37463993
118	0x3dd6dc71	0.104912646
119	0x3dbf1519	0.09330196
120	0xbe721444	-0.23640543
121	0xbcf11a7b	-0.029431572
122	0xbdd15775	-0.10221759
123	0xbe2d5e9f	-0.16930626
124	0xbeb167cd	-0.34649506
125	0x3d86e65c	0.06586906
126	0x3df38e7d	0.11892412
127	0x3ea48968	0.32136083
128	0x3dbf2ee1	0.09335113
129	0x3e135ab5	0.1439007
130	0x3eb5a262	0.3547545
131	0x3d3b9a74	0.045801595
132	0x3c92722e	0.01787671
133	0x3d5fca68	0.05463639
134	0xbe6828d0	-0.22671819
135	0xba9f4ea6	-0.0012154176
136	0xbe677c1b	-0.22605936
137	0xbe7f4475	-0.24928458
138	0xbe3330fc	-0.17499155
139	0xbe1ea4c3	-0.15492539
140	0x3dd479a3	0.10374763
141	0x3e4dad60	0.20085669
142	0xbf0abf8a	-0.54198515
143	0x3e876cd8	0.2645023
144	0xbe28966d	-0.16463633
145	0xbdf047f8	-0.11732477
146	0x3e88bd33	0.26706848
147	0xbf631579	-0.8870464
148	0xbe9d10f0	-0.30676985
149	0xbeacfc5b	-0.33786282
150	0xbe33295f	-0.1749625
151	0x3ebc8195	0.36817613
152	0xbd07140b	-0.0329781
153	0xbf35e2b1	-0.7104903
154	0x3f23b2a3	0.63944453
155	0x3f2c1377	0.672172
156	0x3be5a5ba	0.0070082815
157	0x3d32155c	0.0434774
158	0x3d57110a	0.052506484
159	0xbe8b8526	-0.27250022
160	0x3ee63394	0.44961226
161	0x3ee32359	0.44362906
162	0x3d7cdb88	0.0617328
163	0xbe8a963b	-0.27067742
164	0xbcb8be79	-0.022551762
165	0xbeb1c13d	-0.34717742
166	0x3e959896	0.29217976
167	0xbe7b8feb	-0.24566619
168	0xbf2a3cc6	-0.6649898
169	0x3e2497ba	0.16073504
170	0xbea29649	-0.31755283
171	0xbef2ea77	-0.47444507
172	0xbe7ab4ba	-0.24483004
173	0xbdc0c2af	-0.09412133
174	0xbda75b4f	-0.081717126
175	0xbd9ad438	-0.07560009
176	0xbc15b752	-0.009137945
177	0x3ea03e86	0.31297702
178	0xbea4727d	-0.32118598
179	0xbe520c7d	-0.20512576
180	0xbe70fb89	-0.23533453
181	0xbf03ab4d	-0.5143326
182	0x3d74ee6c	0.05979769
183	0x3dcb7455	0.09934298
184	0x3d4f2a8d	0.05057769
185	0x3dc94752	0.098280564
186	0x3ecbd722	0.3981257
187	0xbf2d10aa	-0.6760355
188	0x3ebeaba6	0.37240332
189	0xbf1c0ce9	-0.609572
190	0x3c38dc54	0.011282999
191	0x3ef80118	0.48438334
192	0xbed38b9d	-0.41317454
193	0xbe81b368	-0.2533219
194	0x3efe950b	0.49723086
195	0x3c8fcef9	0.017554747
196	0xbe098e39	-0.1343316
197	0xbe9c85cb	-0.30570826
198	0xbe332aa8	-0.17496741
199	0xbf0304ac	-0.51179004
200	0x3dd33685	0.10313133
201	0xbe3a7f85	-0.18212707
202	0xbee83015	-0.45349184
203	0x3d7166b3	0.058935832
204	0xbeef7941	-0.46772197
205	0xbd84ed69	-0.06490595
206	0xbed9f874	-0.42572367
207	0x3e6b52b0	0.22980762
208	0x3e6627df	0.22476147
209	0xbef8e873	-0.48614845
210	0xbdda5336	-0.106604025
211	0xbdaa2eba	-0.08309694
212	0x3eee34a0	0.46524525
213	0xbad1b121	-0.0015998223
214	0x3d66b58e	0.056325488
215	0xbf50557f	-0.81380457
216	0x3e9b6ebe	0.30357927
217	0xbec81c46	-0.3908407
218	0x3e428c4c	0.18998832
219	0x3e9ede93	0.31029186
220	0x3e99a11b	0.30005726
221	0xbdc000af	-0.093751304
222	0x3ea0dea4	0.3141986
223	0xbecd4eb7	-0.40099117
224	0xbed0ab07	-0.40755484
225	0x3e090fa0	0.13384867
226	0x3e4388fb	0.19095223
227	0xbe985085	-0.29748932
228	0x3e93c34b	0.28859934
229	0xbe419702	-0.18905261
230	0xbecdbbcc	-0.4018234
231	0xbf9449d0	-1.1585026
232	0x3ddd48ea	0.10804923
233	0x3deb99c5	0.115039386
234	0xbce2b446	-0.027673852
235	0xbf0c70bb	-0.54859513
236	0xbef3777c	-0.47552097
237	0xbee1993d	-0.44062224
238	0xbf31576e	-0.6927403
239	0xbcd98b90	-0.026555806
240	0x3ec161f9	0.3777006
241	0xbce84d80	-0.028357267
242	0x3f497660	0.7869625
243	0xbf3afb19	-0.73039395
244	0x3e1c7fb0	0.15283084
245	0x3e3c20db	0.18371908
246	0x3d36d6d8	0.044638485
247	0x3c90cef2	0.017676804
248	0xbea9320f	-0.33046004
249	0x3d87e489	0.066353865
250	0xbe82ae57	-0.25523636
251	0xbe1de0bf	-0.15417765
252	0x3c287edd	0.010284153
253	0xbefc21af	-0.4924445
254	0x3d85aec5	0.06527475
255	0xbda969d8	-0.08272141

layers.1.bias f4 [128]
0	0xbf2e725d	-0.68143255
1	0xbe5d8afe	-0.21635053
2	0x3ea734fb	0.32657608
3	0xbeb8a0ef	-0.36060283
4	0xbe8c44c0	-0.27396202
5	0xbeebbfbf	-0.46044728
6	0xbee06b6d	-0.4383196
7	0xbef68e3c	-0.4815539
8	0xbe20d85e	-0.15707538
9	0xbe9056d0	-0.28191233
10	0xbe6167be	-0.22012231
11	0xbe2e2b1e	-0.17008635
12	0xbc94bfd2	-0.018157873
13	0xbf367877	-0.71277565
14	0xbf06862d	-0.52548486
15	0xbee993cb	-0.4562057
16	0xbda9a254	-0.08282915
17	0xbf9896a3	-1.1920971
18	0xbedac893	-0.4273115
19	0xbdf02341	-0.11725474
20	0xbef01555	-0.46891275
21	0xbf546f84	-0.8298266
22	0xbf52521d	-0.82156545
23	0xbe4656d7	-0.19369064
24	0xbe760552	-0.24025467
25	0xbebe3e74	-0.37157023
26	0xbf1e3708	-0.6180272
27	0xbe146802	-0.14492801
28	0xbf3714e9	-0.7151628
29	0xbe5d23b1	-0.21595646
30	0xbea78a98	-0.32722926
31	0xbf0d8196	-0.5527586
32	0xbf76a9aa	-0.96352637
33	0xbf3081d9	-0.6894813
34	0xbea7dfc8	-0.3278792
35	0xbe8ff747	-0.28118345
36	0xbf2a0763	-0.6641752
37	0xbed766e0	-0.42070675
38	0xbf8006c9	-1.0002071
39	0xbf780d3d	-0.968952
40	0xbf1ef50d	-0.6209267
41	0x3e14d296	0.14533457
42	0xbef2a9db	-0.47395214
43	0x3e983855	0.29730478
44	0xbdedb8f7	-0.11607545
45	0xbf239a9f	-0.6390781
46	0xbecb2c50	-0.39682245
47	0xbea4ee0c	-0.32212865
48	0xbe4a9561	-0.19783546
49	0xbe9736ae	-0.29533905
50	0xbdfd2b15	-0.12361733
51	0xbf5351ac	-0.82546496
52	0xbefb7354	-0.49111426
53	0xbe83beeb	-0.25731596
54	0xbef24f0c	-0.47325933
55	0xbf0bb0fa	-0.5456692
56	0xbeea809d	-0.4580125
57	0xbed3f68d	-0.4139904
58	0xbf28fa9f	-0.6600742
59	0xbf4b48be	-0.7940787
60	0xbf713421	-0.9422017
61	0xbee6be66	-0.45067137
62	0xbf00f8c6	-0.503796
63	0xbec901a6	-0.3925907
64	0xbef77a0c	-0.48335302
65	0xbd89b3db	-0.06723758
66	0xbeb74371	-0.3579364
67	0xbe55112e	-0.20807335
68	0x3e16b97f	0.14719199
69	0xbed8a826	-0.42315787
70	0xbedf2cd4	-0.4358889
71	0xbf3bd848	-0.73376894
72	0xbed6601c	-0.418702
73	0xbef077c9	-0.4696639
74	0xbef6a214	-0.4817053
75	0xbed3ed40	-0.41391945
76	0xbecad6d7	-0.39617035
77	0xbe912a73	-0.283527
78	0xbf0fabfa	-0.5612179
79	0xbf24bcb4	-0.6435044
80	0xbe702301	-0.23450853
81	0xbee74448	-0.45169282
82	0x3e01c528	0.12672865
83	0xbe671ccb	-0.22569577
84	0xbf3aaf71	-0.7292395
85	0xbe571b9e	-0.21006629
86	0xbe236dfd	-0.15959926
87	0xbea18ada	-0.31551248
88	0xbf36bff1	-0.7138663
89	0xbef4f786	-0.47845095
90	0xbf196e8c	-0.59934306
91	0xbf3e4987	-0.74330944
92	0xbbb0106c	-0.0053730514
93	0xbec0b8b5	-0.3764092
94	0xbdabfd0c	-0.08397874
95	0xbeea18a9	-0.4572194
96	0xbed7bc4d	-0.4213585
97	0xbef5f609	-0.48039272
98	0xbe67dcf9	-0.22642888
99	0xbe484d07	-0.19560634
100	0xbdab30e7	-0.08358937
101	0xbcb1d892	-0.021709714
102	0xbe49c4ff	-0.19704054
103	0xbf5d6f58	-0.8649802
104	0xbeae2b0c	-0.34017217
105	0xbf3075f6	-0.68929994
106	0xbed6e31a	-0.4197014
107	0xbee5abf1	-0.44857743
108	0xbdf7c162	-0.12097432
109	0xbf0dd733	-0.5540649
110	0xbf27f3f2	-0.65606606
111	0xbee3f51f	-0.4452295
112	0xbdc38088	-0.09546
113	0xbf4dfc82	-0.8046342
114	0xbdd50623	-0.10401561
115	0xbe9450d6	-0.28967923
116	0xbe243df3	-0.16039257
117	0xbeb3b23f	-0.35096928
118	0xbf1c7141	-0.6111031
119	0xbeaadbad	-0.33370724
120	0xbf09a4b2	-0.5376693
121	0xbef1c4b8	-0.47220397
122	0xbeba7d63	-0.36423787
123	0xbeaf7c5a	-0.3427456
124	0xbec71c9a	-0.3888901
125	0xbd153ebe	-0.03643679
126	0xbe867e36	-0.26268166
127	0xbee051fd	-0.43812552

layers.2.weight f4 [128, 128]
0	0x3dc9bbe8	0.098502934
1	0xbe87cddf	-0.26524255
2	0xbf5a3cee	-0.8524922
3	0xbd7e9cf9	-0.06216142
4	0x3de05ed3	0.10955586
5	0x3e304abd	0.1721601
6	0x3e003f3e	0.12524125
7	0xbec0618e	-0.37574428
8	0xbee35c62	-0.4440642
9	0xbf03f2a7	-0.51542133
10	0x3e01dce7	0.12681924
11	0x3e7edf8b	0.24889962
12	0xbebf0dcc	-0.37315214
13	0xbf16da72	-0.5892707
14	0xbeb33762	-0.3500319
15	0x3e8a9a8e	0.2707104
16	0xbc976ae8	-0.018483594
17	0xbd93cfed	-0.07217393
18	0xbeb57a8e	-0.35445064
19	0xbec8751c	-0.39151847
20	0x3f041b34	0.5160401
21	0x3f0ee52d	0.55818444
22	0xbe8be40d	-0.27322426
23	0xbf18a68c	-0.5962913
24	0xbd26e58e	-0.040746264
25	0x3c20bf33	0.00981121
26	0xbc9d310d	-0.019188428
27	0xbeeadb59	-0.45870474
28	0xbe30292d	-0.17203207
29	0xbcbd9637	-0.023142917
30	0xbedda4e9	-0.4328988
31	0xbd991d8c	-0.07476339
32	0x3ca04f33	0.019569015
33	0xbdd9c5d2	-0.10633434
34	0x3dba3a1a	0.09093113
35	0xbf0cb5b1	-0.5496474
36	0x3ebfdd68	0.37473607
37	0xbf192cce	-0.5983399
38	0x3d8c8be8	0.068626225
39	0x3e9c8bdf	0.30575463
40	0x3ecb8479	0.39749506
41	0xbdb3c575	-0.08777896
42	0xbf264694	-0.64951444
43	0xbf03b0b8	-0.51441526
44	0x3dfd6c41	0.123741634
45	0x3e8d757a	0.2762869
46	0xbe4bd922	-0.19907048
47	0x3e12521b	0.14289133
48	0xbe690b0b	-0.22758119
49	0xbe9031a1	-0.28162864
50	0x3e1a2574	0.1505335
51	0xbe50b32c	-0.20380849
52	0xbf63b50a	-0.8894812
53	0xbe88f5e5	-0.26750103
54	0x3ead589a	0.3385666
55	0xbd2c80b0	-0.042114913
56	0x3eb88d4b	0.36045298
57	0xbe664626	-0.22487697
58	0x3d761729	0.06008068
59	0x3eb3db03	0.3512803
60	0x3e7aac2a	0.24479738
61	0xbed7739b	-0.42080387
62	0x3c7665d4	0.015038926
63	0xbe642a63	-0.22281794
64	0xbeec5774	-0.4616047
65	0x3d76ab49	0.060221944
66	0xbec3c87c	-0.38238895
67	0x3e8e8f1e	0.27843565
68	0xbf405d7b	-0.7514264
69	0x3ecea370	0.40359068
70	0xbee23ae3	-0.44185552
71	0x3df40ac3	0.11916115
72	0x3d282cbd	0.04105829
73	0x3e881e2e	0.26585525
74	0x3e644d97	0.22295223
75	0xbebd4fb0	-0.3697486
76	0x3f05369c	0.5203645
77	0x3d90f2be	0.070775494
78	0xbe675020	-0.22589159
79	0xbe391a64	-0.18076473
80	0x3e383b14	0.17991287
81	0x3e8e44fc	0.27787006
82	0x3ea9e87d	0.33185187
83	0xbf5f7038	-0.8728061
84	0x3e460a98	0.19339979
85	0xbe06f296	-0.13178477
86	0x3eb82d94	0.35972273
87	0xbe9ef479	-0.31045893
88	0x3d1ee908	0.038796455
89	0x3d2947cc	0.041328236
90	0x3ec33032	0.38122708
91	0xbec2684d	-0.379702
92	0xbea5916b	-0.32337508
93	0x3d8696de	0.065717444
94	0x3e228cf5	0.15874083
95	0x3cc84683	0.024447685
96	0x3d66a198	0.05630645
97	0xbe936e8e	-0.28795284
98	0x3e542394	0.20716697
99	0xbf30800e	-0.68945396
100	0xbe4f0c09	-0.20219435
101	0xbe419482	-0.18904307
102	0x3eded4bd	0.4352168
103	0x3e44738b	0.19184701
104	0x3e000b39	0.12504281
105	0x3e0c4759	0.13699092
106	0xbf83bfdb	-1.0292925
107	0xbf380ec8	-0.71897554
108	0x3b371ffa	0.0027942644
109	0x3f0cbdd9	0.54977185
110	0xbe8d7b55	-0.27633157
111	0xbf243b0e	-0.6415261
112	0xbe4e8192	-0.20166615
113	0x3e872b1f	0.26400086
114	0xbe244d8d	-0.16045208
115	0xbeff7327	-0.49892542
116	0x3d9e8258	0.07739705
117	0xbf3adab0	-0.7298994
118	0xbeb639ea	-0.3559106
119	0xbf4adfdd	-0.7924784
120	0xbddf4f38	-0.10903782
121	0x3f01ea8e	0.5074853
122	0xbd4723a1	-0.048617963
123	0x3ef54b2a	0.47908908
124	0xbf664395	-0.8994687
125	0xbf08ec52	-0.53485596
126	0xbe2afc6a	-0.16697851
127	0xbb5c546a	-0.003361965
128	0x3d0b46a3	0.03400291
129	0xbef3fa4b	-0.47651896
130	0xbf7c766e	-0.9861821
131	0xbe4adf89	-0.19811834
132	0xbec62c9e	-0.38705915
133	0xbda5c0ef	-0.0809344
134	0xbe9581f3	-0.29200706
135	0xbf122c05	-0.5709842
136	0xbde96c33	-0.113975905
137	0x3cf29d75	0.029616097
138	0xbf75a3b1	-0.959529
139	0x3ccba99b	0.024861148
140	0xbebe2cea	-0.37143642
141	0x3f15656a	0.5835787
142	0x3eeb8ad4	0.46004355
143	0xbe8a2b1b	-0.26986012
144	0xbd2ba7b5	-0.041907985
145	0xbea4ccc1	-0.32187465
146	0xbcbcd9ac	-0.023053013
147	0x3ec8669c	0.39140785
148	0xbd2d0195	-0.042237837
149	0x3f1ad9fa	0.60488856
150	0x3df01963	0.11723592
151	0xbef00a00	-0.4688263
152	0xbf04fbd6	-0.5194677
153	0x3d89ed86	0.06734757
154	0x3f0548f8	0.52064466
155	0xbf093f56	-0.5361227
156	0xbf0790ca	-0.52955306
157	0xbf4a44d5	-0.7901128
158	0x3e0232c1	0.12714674
159	0xbf076286	-0.5288471
160	0xbc016a40	-0.007898867
161	0x3dd470fd	0.10373113
162	0xbe1f88f7	-0.15579592
163	0x3f266d7b	0.65010804
164	0xbf2dbadb	-0.67863244
165	0xbf0dd770	-0.55406857
166	0xbe6800d1	-0.22656561
167	0x3d870935	0.06593553
168	0xbdd40938	-0.10353321
169	0xbe5742a9	-0.21021523
170	0xbd8b962c	-0.068157524
171	0xbeece860	-0.46271038
172	0xbf78a25a	-0.9712273
173	0x3d89f4cc	0.067361444
174	0x3e09ba46	0.13449964
175	0xbdf0166b	-0.11723026
176	0x3e926f90	0.2860074
177	0x3ea38d6c	0.31943834
178	0xbc17023b	-0.00921684
179	0xbdf38368	-0.11890298
180	0xbecd43af	-0.400907
181	0xbe851f64	-0.26000512
182	0x3e3d5b58	0.18491876
183	0x3e59d391	0.21272112
184	0x3ed8d1f0	0.4234767
185	0x3e8164eb	0.25272307
186	0xbe129a43	-0.14316659
187	0xbe563f57	-0.209226
188	0xbdb0124e	-0.08597241
189	0x3e656cc3	0.2240477
190	0x3e0fae14	0.1403125
191	0x3de4bd4f	0.1116892
192	0x3e66480a	0.22488418
193	0xbdf43776	-0.11924641
194	0x3ded9f58	0.11602658
195	0x3cbc12d8	0.022958204
196	0xbe32a18c	-0.17444438
197	0x3dbee4ec	0.09321007
198	0xbecf8359	-0.40529898
199	0x3b5ccf60	0.003369294
200	0x3d070665	0.032965083
201	0x3cba858e	0.022768762
202	0x3eea8647	0.4580557
203	0x3d3505f8	0.044195145
204	0xbe92cb76	-0.28670853
205	0xbc8e74df	-0.017389713
206	0x3ea33f49	0.3188422
207	0x3d6ac139	0.057313178
208	0xbdb9f67d	-0.09080217
209	0xbb0b2c0b	-0.0021235968
210	0xbe1be1c6	-0.15222844
211	0x3d4130c8	0.047165662
212	0xbeda7cf7	-0.42673466
213	0x3d14a65b	0.03629146
214	0x3e93a502	0.28836828
215	0x3d8330f2	0.0640582
216	0xbf3d25c1	-0.7388573
217	0x3ea36f7c	0.31920993
218	0xbe471bb6	-0.19444165
219	0x3b37ed9a	0.0028065206
220	0x3bd7afde	0.0065822443
221	0xbe58ce16	-0.21172366
222	0x3d27e705	0.0409918
223	0xbd09013b	-0.03344844
224	0x3f04734a	0.5173842
225	0xbd7f9f64	-0.062407866
226	0xbd620e8d	-0.055189658
227	0xbea90a07	-0.33015463
228	0xbede433a	-0.43410665
229	0x3f17c6ff	0.5928802
230	0x3e0d1df5	0.13780959
231	0x3f05314d	0.5202835
232	0x3ec2e6ff	0.3806686
233	0xbd89de39	-0.06731839
234	0xbebc8777	-0.368221
235	0xbee5f1ba	-0.44910985
236	0x3e21575e	0.15755984
237	0xbe66af0e	-0.22527716
238	0x3e542815	0.20718415
239	0xbed20bb0	-0.41024542
240	0x3e57f03a	0.21087733
241	0x3eac234c	0.3362068
242	0xbf30d198	-0.69069815
243	0xbf01075f	-0.5040187
244	0xbeb0077a	-0.34380704
245	0xbf15aaa7	-0.5846352
246	0xbf72da00	-0.9486389
247	0x3e3d4cf7	0.18486391
248	0xbd961d25	-0.07329778
249	0xbf0df30c	-0.55448985
250	0xbe5d6fd0	-0.21624684
251	0xbe3458e8	-0.1761204
252	0x3de268fe	0.11055182
253	0x3e061bd8	0.13096559
254	0xbf21b708	-0.6316991
255	0xbdfa323d	-0.122166134

layers.2.bias f4 [128]
0	0xbeb19440	-0.34683418
1	0xbee0e984	-0.43928158
2	0xbf2bbc91	-0.67084605
3	0x3eaaaf88	0.33337045
4	0xbf567ce1	-0.837843
5	0xbf460ff0	-0.7736807
6	0xbd8b6656	-0.068066284
7	0x3e476f04	0.19475943
8	0xbe4e7c34	-0.20164567
9	0xbf323190	-0.69606876
10	0xbecd19ca	-0.40058738
11	0xbefc0cb5	-0.49228445
12	0xbe7f1ed2	-0.24914101
13	0xbef719f6	-0.48261994
14	0xbee73381	-0.45156482
15	0xbed46037	-0.41479656
16	0xbeffb983	-0.49946222
17	0x3e650677	0.22365747
18	0xbeb8bcff	-0.36081693
19	0xbe8adfb7	-0.27123806
20	0xbe85602f	-0.26049945
21	0xbec553fb	-0.38540635
22	0x3cd75462	0.026285354
23	0xbea5e77a	-0.32403165
24	0xbec098d8	-0.3761661
25	0xbe9ab14c	-0.30213392
26	0xbea11737	-0.31463024
27	0xbeb20f30	-0.34777212
28	0x3cc69066	0.024238776
29	0xbe79836a	-0.24366537
30	0x3cbc5404	0.02298928
31	0xbec1f4bb	-0.37882027
32	0xbe3ca4cb	-0.18422239
33	0xbd2ffbac	-0.042964622
34	0xbef4ac29	-0.47787598
35	0xbe7a75f5	-0.2445906
36	0x3e279bc0	0.16368008
37	0xbee35a7b	-0.4440497
38	0xbf36521e	-0.7121905
39	0xbe221761	-0.15829231
40	0xbe0b717b	-0.13617508
41	0xbeadd8b0	-0.33954382
42	0xbe89631e	-0.26833433
43	0xbf8cfce2	-1.1014674
44	0xbec84270	-0.39113188
45	0xbf2c7dca	-0.6737944
46	0x3b5af8ec	0.003341253
47	0xbde5d3e3	-0.11222055
48	0xbf5d4c04	-0.86444116
49	0xbf472baf	-0.7780103
50	0x3db3d202	0.0878029
51	0xbf1828be	-0.5943717
52	0xbeb59ff5	-0.354736
53	0xbf4d3407	-0.8015751
54	0xbe2c9e4d	-0.16857262
55	0xbea60fb9	-0.3243387
56	0xbe5ec9aa	-0.21756616
57	0xbe066eb0	-0.13128161
58	0xbee2a689	-0.4426768
59	0xbe66373f	-0.22482012
60	0xbf1a7488	-0.6033406
61	0x3dd6e19f	0.104922526
62	0xbe873a3e	-0.26411623
63	0xbed51b7e	-0.41622537
64	0xbe828440	-0.25491524
65	0x3d664a68	0.056223303
66	0x3e99aa84	0.30012906
67	0xbecf8a36	-0.40535134
68	0xbe894a9c	-0.26814735
69	0x3cd3a8f7	0.025837405
70	0xbe5afafa	-0.21384802
71	0xbeef8b2a	-0.4678586
72	0xbebb4020	-0.3657236
73	0xbe25f5b2	-0.16207007
74	0xbe4151b8	-0.1887883
75	0x3e37328c	0.17890376
76	0xbe94cbb2	-0.29061657
77	0x3d2c225f	0.042024966
78	0xbea2738d	-0.31728783
79	0xbf1956cb	-0.5989806
80	0xbf467481	-0.7752152
81	0xbef77606	-0.48332232
82	0xbea2a6c2	-0.3176785
83	0xbf178649	-0.5918928
84	0xbf90566a	-1.1276371
85	0xbf0f49eb	-0.55972165
86	0xbe690335	-0.2275513
87	0xbf6be64d	-0.92148286
88	0xbef4176f	-0.47674128
89	0xbe14b6fe	-0.14522931
90	0xbd9b32d8	-0.07578057
91	0xbe60704b	-0.21917836
92	0xbeac1f43	-0.336176
93	0xbe774164	-0.24146038
94	0xbead8c3c	-0.33896053
95	0xbeb97666	-0.36223143
96	0x3d98856c	0.07447323
97	0xbd127b4f	-0.035762127
98	0xbe4d168a	-0.20028129
99	0xbedef6b6	-0.435476
100	0xbeb5faa3	-0.35542783
101	0xbe719150	-0.23590589
102	0xbe8592ce	-0.26088566
103	0xbf605ebd	-0.8764456
104	0xbee710db	-0.45130047
105	0xbef33bda	-0.475066
106	0xbeaa7440	-0.33291817
107	0xbf311e39	-0.6918674
108	0xbf22dbdd	-0.63616735
109	0xbf302594	-0.6880734
110	0xbeca9422	-0.3956614
111	0x3e5414db	0.2071108
112	0xbf2019c2	-0.62539303
113	0xbf187d08	-0.5956578
114	0xbf040e58	-0.51584387
115	0xbf07e695	-0.53086215
116	0xbe754f26	-0.23955974
117	0xbe24f2c5	-0.16108234
118	0xbed7f3ad	-0.42178097
119	0xbec17dee	-0.3779139
120	0xbeb4aa6e	-0.35286278
121	0xbebf5ebb	-0.3737696
122	0x3df14e66	0.117825314
123	0xbe83d807	-0.25750753
124	0xbf2ca0c9	-0.6743284
125	0xbe5af1e4	-0.21381336
126	0x3d6da223	0.058015954
127	0xbf3aa779	-0.72911793

layers.3.weight f4 [2, 128]
0	0xbcdb4db3	-0.026770448
1	0xbec6c103	-0.3881913
2	0x3e6cb28e	0.23114988
3	0xbec7590b	-0.38935122
4	0x3e12bd54	0.14330035
5	0xbeb65bc1	-0.35616878
6	0xbeba7551	-0.3641763
7	0xbe9bb60c	-0.30412328
8	0xbe199e9f	-0.15001915
9	0xbe6d1634	-0.23153001
10	0xbe7705c5	-0.24123295
11	0xbe9cf661	-0.30656722
12	0x3d7c049d	0.061527837
13	0xba0ad2fe	-0.00052957225
14	0xbebd4d92	-0.36973244
15	0xbb807d9e	-0.0039212247
16	0xbe1ed831	-0.15512158
17	0x3ea92f20	0.33043766
18	0xbe3a4cf2	-0.18193415
19	0x3e6eb420	0.233109
20	0x3f017c19	0.50579983
21	0xbc819eff	-0.015822886
22	0x3ea66875	0.3250157
23	0x3de78397	0.11304396
24	0x3e876ab9	0.2644861
25	0x3ec1b719	0.37835005
26	0xbf2b4a39	-0.6691013
27	0x3eb57b56	0.3544566
28	0x3d30a29c	0.043123826
29	0xbe72caf1	-0.23710229
30	0x3e620bbb	0.22074787
31	0x3d024c28	0.03181091
32	0x3e3e8163	0.18604045
33	0xbd845f7b	-0.06463524
34	0x3e13ae06	0.14421853
35	0xbe1ead92	-0.154959
36	0xbc10fe5e	-0.008849708
37	0x3e640097	0.2226585
38	0xbeccfd45	-0.4003698
39	0xbf103b89	-0.56340843
40	0x3ee5fe34	0.44920504
41	0xbf043724	-0.5164664
42	0xbd8132f8	-0.0630855
43	0xba083d21	-0.0005197097
44	0xbdae27dd	-0.08503697
45	0xbe153984	-0.14572722
46	0x3e2baaa3	0.16764311
47	0x3ea5bb6a	0.32369548
48	0xbe2378ac	-0.15964001
49	0xbda15b6b	-0.07878765
50	0xbf022d73	-0.508506
51	0xbd5b7e83	-0.053587448
52	0xbeea4e47	-0.45762846
53	0xbc948ecb	-0.018134495
54	0xbf17b8e8	-0.5926652
55	0x3e0fd00a	0.14044204
56	0xbebc863e	-0.3682117
57	0x3e2ab386	0.16670045
58	0x3db9baf7	0.09068864
59	0xbef0af2a	-0.4700864
60	0xbeca5231	-0.39515832
61	0x3e0f283a	0.13980189
62	0xbdb14aef	-0.086568706
63	0x3e4c7c29	0.19969238
64	0xbe2354cf	-0.1595032
65	0x3e8b9c57	0.27267715
66	0xbce3cf25	-0.027808735
67	0x3eb18402	0.34671026
68	0xbc570f44	-0.013126198
69	0x3e50dc0f	0.20396446
70	0xbeb11a4b	-0.34590372
71	0x3dd56b01	0.104208
72	0x3e93ade5	0.28843608
73	0xbf3e415d	-0.74318486
74	0xbe59b057	-0.21258675
75	0xbec8a2fa	-0.3918684
76	0xbe3e0cde	-0.18559596
77	0xbf21689b	-0.6305024
78	0xbec781ae	-0.38966125
79	0xbf23e918	-0.6402755
80	0xbe37a291	-0.17933108
81	0xbdf2ba60	-0.118519545
82	0xbe8b2b33	-0.27181396
83	0x3e1db486	0.15400895
84	0x3d6165ff	0.05502891
85	0xbe09ef06	-0.13470086
86	0xbd90575b	-0.07047912
87	0x3cd5c044	0.026092656
88	0x3d549d66	0.05190792
89	0xbeca6bd3	-0.39535388
90	0x3da6acaf	0.081384055
91	0x3e28aea2	0.16472867
92	0x3d5b2f1f	0.053511735
93	0xbf09cf20	-0.5383167
94	0xbe8696f7	-0.26287052
95	0x3e823739	0.25432757
96	0x3bc0d7ad	0.0058850856
97	0xbe2d1a71	-0.16904618
98	0xbdef0970	-0.11671722
99	0xbe20b9f9	-0.15695943
100	0x3efbf332	0.4920898
101	0x3ea2c175	0.3178822
102	0x3dc4e527	0.0961402
103	0x3d8eacf6	0.069665834
104	0x3ec3edea	0.38267452
105	0x3ec9db9b	0.39425358
106	0x3e4b1bd4	0.19834834
107	0xbcc083d3	-0.023500359
108	0xbe54fcd8	-0.20799577
109	0x3dee4762	0.11634709
110	0xbd010ead	-0.031508137
111	0xbef494a8	-0.47769666
112	0xbe4db3de	-0.20088145
113	0x3da437ac	0.08018431
114	0xbd1fe5de	-0.039037578
115	0x3e9de990	0.30842257
116	0x3ec794fe	0.3898086
117	0x3af31e84	0.0018548523
118	0x3e0a5772	0.1350992
119	0xbe44d1a1	-0.19220592
120	0x3e965ce1	0.29367736
121	0xbc8bb1b8	-0.017052516
122	0x3e8b908d	0.2725872
123	0x3e02c127	0.12768994
124	0x3e2209f7	0.15824114
125	0xbe3f90dc	-0.18707603
126	0xbe0a47c4	-0.13503939
127	0x3dff395d	0.12462113
128	0x3f2d9050	0.6779833
129	0xbdc83d54	-0.097773224
130	0x3e82c9b8	0.25544524
131	0xbc9ad2c7	-0.018899335
132	0xbdb330a1	-0.087495096
133	0x3f04d9bf	0.51894754
134	0x3e707e4d	0.2348568
135	0x3ea39c83	0.31955346
136	0xbd959c45	-0.07305197
137	0x3dbe9402	0.09305574
138	0x3da15e04	0.0787926
139	0x3cfa2ca6	0.030538868
140	0xbeeb3b3d	-0.45943633
141	0x3eedcaf0	0.46443892
142	0x3d988661	0.07447506
143	0x3eb24c25	0.3482372
144	0x3dfd97cc	0.123824686
145	0x3ca09567	0.01960249
146	0x3e2d7e24	0.1694265
147	0x3e4ac026	0.19799861
148	0xbe449043	-0.19195656
149	0x3f4addf7	0.7924494
150	0xbe829015	-0.2550055
151	0xbd44e866	-0.048073195
152	0xbda5c131	-0.08093489
153	0x3c5e24cf	0.013558581
154	0xbd2b87bf	-0.041877504
155	0x3db856b9	0.09000916
156	0x3e9e4f70	0.3091998
157	0xbe753640	-0.23946476
158	0x3d99790c	0.07493791
159	0x3cc73477	0.02431701
160	0xbe34593f	-0.1761217
161	0xbebf65b9	-0.37382296
162	0xbefafb9d	-0.4902009
163	0xbf1cd0b0	-0.6125593
164	0x3e9daa91	0.30794194
165	0x3ea22993	0.31672344
166	0x3dcea9e0	0.10090995
167	0x3dadface	0.08495103
168	0x3e814983	0.25251397
169	0x3d163a74	0.03667684
170	0x3f3e0bff	0.74237055
171	0x3a478b86	0.0007612038
172	0x3e1a6fea	0.15081754
173	0x3e3bbc74	0.18333608
174	0xbeeb137a	-0.45913297
175	0x3e609644	0.21932322
176	0x3f9d7e79	1.2304221
177	0xbe864dbd	-0.26231185
178	0x3db8b7d0	0.090194345
179	0xbe9f4c1a	-0.31112748
180	0xbe46b6a9	-0.19405617
181	0xbf2c31d6	-0.67263544
182	0xbe473e5e	-0.19457385
183	0x3f012a10	0.5045481
184	0x3bda9936	0.006671096
185	0xbe34db09	-0.1766168
186	0xbf0174ad	-0.5056866
187	0x3d176720	0.036963582
188	0xbed84d13	-0.42246303
189	0xbeccaac3	-0.3997403
190	0x3e8cd042	0.27502638
191	0xbee58634	-0.4482895
192	0xbec57e8b	-0.38573107
193	0xbe44dfc4	-0.19225985
194	0x3ebde5c2	0.37089354
195	0x3e5e8745	0.21731289
196	0x3ec86c66	0.391452
197	0x3eb4a982	0.35285574
198	0x3d5c701f	0.053817865
199	0xbdfb9e72	-0.122860804
200	0x3e605ba1	0.21909954
201	0xbedc1fa2	-0.42992884
202	0xbecf2dfc	-0.4046477
203	0xbe984f84	-0.29748166
204	0xbd23b261	-0.039965037
205	0x3e436902	0.19083026
206	0xbf0a7576	-0.5408548
207	0xbe1a7447	-0.15083419
208	0x3f00b058	0.5026908
209	0xbeca0646	-0.3945791
210	0xbe2f2a5e	-0.17106006
211	0xbed9dc42	-0.42550856
212	0x3e181da3	0.14855056
213	0xbdb227c9	-0.08698995
214	0xbef1eb8f	-0.4725003
215	0x3e7093f5	0.23493941
216	0xbf2b82b9	-0.6699634
217	0x3c84e3da	0.01622193
218	0x3dde1132	0.108431235
219	0x3df6ae2f	0.12044942
220	0xbedfb3e4	-0.43691933
221	0x3eb94c83	0.36191186
222	0x3f10c5ba	0.56551707
223	0x3db8907b	0.090119325
224	0x3f3eb6fe	0.74497974
225	0xbd3e90a3	-0.046524655
226	0x3eb6af4a	0.3568061
227	0x3f2309a4	0.63686585
228	0x3e5b62ee	0.21424457
229	0xbdd6b12c	-0.104830116
230	0xbf00b35f	-0.502737
231	0x3e41255b	0.18861906
232	0x3d992649	0.074780054
233	0xbe94da33	-0.29072723
234	0x3dd1171a	0.102094844
235	0xbe0ce357	-0.13758598
236	0xbef8d9cb	-0.48603663
237	0xbdfbd714	-0.12296882
238	0x3ddeab18	0.10872477
239	0x3cf97b09	0.030454176
240	0xbeae1e7f	-0.34007642
241	0x3f0d3882	0.5516435
242	0x3bf87725	0.0075825625
243	0xbe488d24	-0.19585091
244	0x3e7c7ed1	0.24657752
245	0x3f1fcca7	0.6242165
246	0x3f00f1a3	0.5036871
247	0x3e992fdf	0.29919335
248	0xbd99e546	-0.075144336
249	0xbec0d51d	-0.37662593
250	0x3f15d80d	0.5853279
251	0x3e3db554	0.18526202
252	0x3e2b5fc7	0.16735755
253	0x3e7f44d3	0.24928598
254	0x3e88698a	0.2664302
255	0xbe7461e5	-0.23865469

layers.3.bias f4 [2]
0	0xbe139a65	-0.14414366
1	0xbd803160	-0.062594175

batch_norms.0.weight f4 [24]
0	0x3edf4324	0.43605912
1	0x3ec7f568	0.39054418
2	0x3e092175	0.13391669
3	0x3e0da4d3	0.13832407
4	0x3ff10264	1.8828855
5	0x3fc3f70b	1.5309767
6	0x3e4118c3	0.18857102
7	0x3ebb7bec	0.36617982
8	0x3ecb5896	0.39716023
9	0x3ef8a625	0.48564258
10	0x3e831bd1	0.2560716
11	0x3edc1b58	0.42989612
12	0x3ebb65dd	0.36601153
13	0x3ed42563	0.41434774
14	0x3e7938d1	0.2433808
15	0x3f1318af	0.5745954
16	0x3f5c8f77	0.8615641
17	0x3f03154e	0.51204383
18	0x3ef44086	0.47705477
19	0x3f15e628	0.58554316
20	0x40082cd2	2.1277356
21	0x3fc97f6e	1.5742013
22	0x3eb6715c	0.3563336
23	0x3f37137a	0.71514094

batch_norms.0.bias f4 [24]
0	0xbe9735aa	-0.2953313
1	0xbe3230ea	-0.17401472
2	0x3dcc9d45	0.09990934
3	0x3e2ca1a9	0.16858543
4	0xbe0269c5	-0.1273566
5	0x3efc2efc	0.49254596
6	0xbcf0e82f	-0.029407589
7	0x3e33e125	0.17566355
8	0xbec360ab	-0.3815969
9	0x3d787686	0.060659908
10	0x3cacb152	0.021080647
11	0xbe4fcbbd	-0.20292564
12	0x3e8f0cbf	0.27939412
13	0x3f11bae3	0.5692579
14	0xbe869cf2	-0.26291615
15	0xbe4cd844	-0.20004374
16	0x3c96adac	0.01839336
17	0xbe46e5c1	-0.19423582
18	0xbe0c64c9	-0.13710321
19	0x3c104f40	0.008807957
20	0xbc9688c4	-0.018375762
21	0x3f19125e	0.5979365
22	0xbe6c2282	-0.23060039
23	0x3e27d5c4	0.16390139

batch_norms.0.running_mean f4 [24]
0	0xc109ec85	-8.620244
1	0xbf0ee7f3	-0.55822676
2	0x3fd593e7	1.6685761
3	0x3c4f01a3	0.012634668
4	0xbdd48f54	-0.103789
5	0x406a9be7	3.6657655
6	0x3fd593e7	1.6685761
7	0x3c4f01a3	0.012634668
8	0xc10ad4c6	-8.676947
9	0xbf0ae166	-0.5425018
10	0x3fbe672d	1.4875237
11	0x3dc00ca3	0.0937741
12	0xbd8256e7	-0.063642316
13	0x40691a9c	3.642249
14	0x3fbe672d	1.4875237
15	0x3dc00ca3	0.0937741
16	0xc10a325b	-8.637294
17	0xbf041ca7	-0.5160622
18	0x400e53c6	2.2238631
19	0x3dc73961	0.09727741
20	0xbd56ab4f	-0.052409466
21	0x4065fbfa	3.5935044
22	0x400e53c6	2.2238631
23	0x3dc73961	0.09727741

batch_norms.0.running_var f4 [24]
0	0x4128705c	10.5274315
1	0x3f90dcaa	1.1317341
2	0x437a66d9	250.40175
3	0x41685651	14.521073
4	0x41eef430	29.869232
5	0x4016f01b	2.3584049
6	0x437a66d9	250.40175
7	0x41685651	14.521073
8	0x41235953	10.209308
9	0x3f8e7d36	1.1131961
10	0x43716a38	241.41492
11	0x4172a250	15.164627
12	0x41f8ac43	31.084112
13	0x401d0fb3	2.4540832
14	0x43716a38	241.41492
15	0x4172a250	15.164627
16	0x412772a3	10.4654875
17	0x3f8a74eb	1.081693
18	0x437e58f7	254.34752
19	0x41787477	15.528434
20	0x4201048c	32.25444
21	0x4025ee3c	2.5926657
22	0x437e58f7	254.34752
23	0x41787477	15.528434

batch_norms.1.weight f4 [128]
0	0x3f816eb4	1.0111909
1	0x3f9744e3	1.1817898
2	0x3f37d40b	0.71807927
3	0x3f96c8c4	1.1780019
4	0x3ee8f3db	0.45498547
5	0x3f2c8493	0.6738979
6	0x3f9f4c2e	1.2445123
7	0x3fe85188	1.8149881
8	0x3fab312a	1.3374379
9	0x3f20265b	0.62558526
10	0x3f9a360e	1.2047746
11	0x3fe9ca9d	1.8264958
12	0x3e8f2fe6	0.2796623
13	0x3f2979a6	0.66201246
14	0x3f45f6dc	0.773298
15	0x3fb644f0	1.4239788
16	0x3f724747	0.9464001
17	0x3f16a3ea	0.58843863
18	0x3f2ac5e5	0.66708213
19	0x3f933f7f	1.1503752
20	0x3f5505ce	0.8321198
21	0x3f94e343	1.1631855
22	0x3f906e23	1.1283611
23	0x3f1d45ff	0.6143493
24	0x3f6ed347	0.93291134
25	0x3f96cce9	1.1781284
26	0x3f5afec7	0.8554501
27	0x3f8623d4	1.0479684
28	0x3f19d355	0.6008809
29	0x3f6c2e5c	0.9225824
30	0x3f50afef	0.81518453
31	0x3fb8ced0	1.4438114
32	0x3f52243c	0.8208654
33	0x3ebcbb9d	0.36861888
34	0x3f1528eb	0.5826556
35	0x3f68b961	0.90907866
36	0x3f5abe7e	0.8544692
37	0x3f4f29b6	0.8092302
38	0x3f5c1acc	0.8597839
39	0x3e5f3d0b	0.2180063
40	0x3f986066	1.1904418
41	0x3f2181c6	0.63088644
42	0x3f8db24c	1.1070037
43	0x3fa6db8c	1.303575
44	0x3fafda0f	1.3738421
45	0x3fce8754	1.6135049
46	0x3f40675a	0.751577
47	0x3f946f36	1.1596439
48	0x3ea0ea15	0.3142859
49	0x3f04f8f4	0.5194237
50	0x3f865931	1.0495969
51	0x3f900192	1.1250479
52	0x3f971b28	1.1805162
53	0x3f8477bf	1.0349044
54	0x3f39d281	0.7258683
55	0x3ed9d1b0	0.4254279
56	0x3e3c7a2b	0.18405978
57	0x3f3955e0	0.7239666
58	0x3ecab7f4	0.3959347
59	0x3f6f15fd	0.93392926
60	0x3f0b3cba	0.54389536
61	0x3f9b2bfa	1.2122796
62	0x3f1ae1f3	0.6050102
63	0x3f0f1375	0.55889064
64	0x3f264bcb	0.649594
65	0x3f76f4e4	0.96467423
66	0x3f7eb759	0.99498516
67	0x3f243aad	0.6415203
68	0x3eff1c00	0.4982605
69	0x400d260e	2.2054477
70	0x3f66da51	0.90176874
71	0x3f9871a5	1.1909682
72	0x3f353aad	0.7079266
73	0x3f7a3ce2	0.9774915
74	0x3fb1f79f	1.3903693
75	0x3f11302b	0.56714123
76	0x3f3c80e5	0.7363418
77	0x3f37d97b	0.71816224
78	0x3f3c6c16	0.73602426
79	0x3eb4a3fb	0.35281357
80	0x3f81f0af	1.0151576
81	0x3ffafebe	1.9608991
82	0x3fb7ff67	1.4374818
83	0x3eb818f3	0.35956535
84	0x3f0dbca5	0.55365974
85	0x3fbc4c34	1.4710755
86	0x3f768a6c	0.96304965
87	0x3eaa7cc7	0.33298323
88	0x3f12aa58	0.57291174
89	0x3ef0bb4a	0.4701789
90	0x3fd3432f	1.6504878
91	0x3f3304f7	0.6992945
92	0x3f2d77a4	0.6776068
93	0x3f2a61cf	0.66555494
94	0x3ea62047	0.324465
95	0x3f95a666	1.1691406
96	0x3fdded16	1.7337978
97	0x3ed61caf	0.4181876
98	0x3f68eebb	0.90989274
99	0x3f4c00a5	0.79688483
100	0x3e9376ec	0.28801668
101	0x3fa7710b	1.3081373
102	0x3e93bd8a	0.28855544
103	0x3f315ca2	0.6928197
104	0x3f89132e	1.0708978
105	0x3f510654	0.8165028
106	0x3f94e792	1.163317
107	0x3f6f8837	0.9356722
108	0x3f8ca6d7	1.0988415
109	0x3fcde98e	1.60869
110	0x3fe6af3c	1.8022227
111	0x3ed5d8ea	0.41767055
112	0x3fb6d203	1.428284
113	0x3f0026bc	0.50059104
114	0x3fa147ae	1.26
115	0x3f800b55	1.0003458
116	0x3f883ad7	1.0642956
117	0x3ed6554f	0.4186196
118	0x3fa20bb5	1.2659823
119	0x3f51b252	0.8191272
120	0x3fa229bf	1.266899
121	0x3eed32d1	0.46327832
122	0x3f60034a	0.8750502
123	0x3f4030de	0.75074565
124	0x3f9de5f7	1.2335805
125	0x3f871810	1.0554218
126	0x3f3100f1	0.6914206
127	0x3fbcb771	1.4743482

batch_norms.1.bias f4 [128]
0	0xbe821543	-0.25406846
1	0xbef724c8	-0.4827025
2	0x3db3f3c4	0.08786729
3	0x3f4250f9	0.75904804
4	0xbee76fcb	-0.4520248
5	0xbf3803e5	-0.7188094
6	0x3f14ae4a	0.58078444
7	0x3ea48758	0.3213451
8	0x3eecb9c6	0.46235484
9	0x3eca4985	0.39509216
10	0x3f202661	0.6255856
11	0x3f045bdf	0.51702684
12	0xbf1bea4b	-0.6090438
13	0xbe6c1c27	-0.23057614
14	0xbcc2330e	-0.023705985
15	0x3f17aa56	0.59244287
16	0x3deb5e53	0.114926
17	0x3e386a47	0.18009292
18	0x3ed5d1a0	0.41761494
19	0x3ef0058d	0.46879235
20	0x3db15eb1	0.08660639
21	0xbef50e5e	-0.47862524
22	0x3f13865f	0.5762691
23	0xbefba5a1	-0.49149802
24	0x3f281a24	0.6566489
25	0x3ec22448	0.37918305
26	0x3c4b58b6	0.012411287
27	0x3dfdd9c9	0.12395055
28	0x3f6c59b9	0.92324406
29	0x3e9815c4	0.29704106
30	0x3ed67efb	0.41893753
31	0x3f362957	0.7115683
32	0xbed09043	-0.40735063
33	0x3da67b0a	0.081289366
34	0xbf111e7a	-0.5668713
35	0x3e49314c	0.19647712
36	0x3ea95488	0.33072305
37	0xbeb8ae71	-0.36070588
38	0xbdf5477f	-0.119765274
39	0x3ccf1152	0.025276814
40	0x3f17fa9c	0.59366775
41	0x3e4b20a2	0.19836667
42	0x3f5ce583	0.8628771
43	0x3f1967fc	0.5992429
44	0x3f0067ff	0.50158685
45	0x3ee220b7	0.44165584
46	0x3edea78c	0.43487203
47	0x3e777b5d	0.24168153
48	0xbdebdf7b	-0.11517235
49	0x3e03dec5	0.12877949
50	0x3db74fc1	0.08950759
51	0x3e9cc2f6	0.30617493
52	0x3e6577e6	0.22409019
53	0x3eabaed2	0.33531815
54	0xbe0cc0db	-0.13745444
55	0xbf3349be	-0.70034397
56	0xbd5546ac	-0.05206935
57	0x3f1c85c0	0.61141586
58	0xbe6e9c46	-0.23301801
59	0x3f083a11	0.532136
60	0xbec1edbd	-0.37876692
61	0xbe6f8ede	-0.23394343
62	0xbe9b7039	-0.30359057
63	0xbd9737ca	-0.07383688
64	0xbf0f6bc9	-0.5602384
65	0xbcaa278e	-0.020770814
66	0x3ea788f4	0.32721674
67	0x3ce73644	0.028224118
68	0xbf6ca46b	-0.9243838
69	0x3e529106	0.20563135
70	0x3ed6e3e8	0.41970754
71	0x3de7caf8	0.1131801
72	0x3d83e755	0.064406075
73	0x3bb18594	0.005417535
74	0x3e57f19c	0.2108826
75	0x3f06f663	0.52719706
76	0x3f203b58	0.6259055
77	0x3efa31bd	0.48866072
78	0x3d48d3cc	0.04903011
79	0xbd581fbd	-0.052764643
80	0xbe9040f1	-0.28174546
81	0xbd7ddb22	-0.06197656
82	0x3df8a222	0.121402994
83	0xbf307781	-0.6893235
84	0xbe58300e	-0.21112081
85	0x3e2bb2e0	0.16767454
86	0x3e36fbe6	0.17869529
87	0xbe45f921	-0.19333316
88	0xbf208bf7	-0.6271357
89	0xbc95d799	-0.018291282
90	0x3f474661	0.77841765
91	0xbf03781e	-0.5135516
92	0xbf07aedc	-0.5300119
93	0xbeda5a47	-0.42647
94	0xbf4a243f	-0.7896156
95	0x3e62f3d4	0.22163326
96	0x3ee9eec6	0.45689982
97	0xbe2dded7	-0.16979538
98	0x3e83f942	0.25776106
99	0x3ec45760	0.38347912
100	0xbf5d7741	-0.8651009
101	0x3f21938f	0.6311578
102	0x3e2cdd5e	0.1688132
103	0xbd6200e6	-0.055176638
104	0xbed1c7e4	-0.40972817
105	0xbef42cea	-0.47690517
106	0xbe61004f	-0.21972774
107	0x3ee96f58	0.4559276
108	0x3ead3edf	0.3383703
109	0xbd4d811a	-0.05017195
110	0x3f174b4e	0.5909928
111	0xbf74e042	-0.9565469
112	0xbe1c77f6	-0.15280136
113	0xbdd92591	-0.10602868
114	0xbe77b85c	-0.24191421
115	0x3f19e30c	0.6011207
116	0xbce4b252	-0.027917061
117	0xbe9fc534	-0.31205142
118	0x3e8830d6	0.2659976
119	0xbdb9bf1f	-0.090696566
120	0x3f3d655b	0.7398278
121	0xbecc0d3e	-0.39853853
122	0x3e89465e	0.26811498
123	0xbe0527ca	-0.1300346
124	0x3ef42333	0.47683105
125	0xbe443478	-0.1916064
126	0xbe102e27	-0.14080106
127	0xbedaa77b	-0.42705902

batch_norms.1.running_mean f4 [128]
0	0x00000004	6e-45
1	0x3ef74195	0.48292223
2	0x3f888431	1.0665342
3	0x3fdf26cc	1.7433715
4	0x3db52641	0.08845187
5	0x3ef17d8c	0.47166097
6	0x3e04307d	0.12909122
7	0x3e038b98	0.1284622
8	0x3fc38536	1.5275028
9	0x3f2ae757	0.66759247
10	0x3e8a4d1a	0.2701195
11	0x3f68d4a2	0.9094945
12	0x3e4f5ac6	0.20249471
13	0x3eaa2b5f	0.33236215
14	0x3ea44af0	0.32088423
15	0x3f5f0859	0.8712211
16	0x3ec067da	0.37579232
17	0x3d812abb	0.06306978
18	0x3f0a6cd9	0.5407234
19	0x3f7ce780	0.9879074
20	0x3f8fd193	1.1235832
21	0x3e5e591a	0.21713677
22	0x3e897c1c	0.268525
23	0x3e9d13a3	0.30679044
24	0x3ed1a2e6	0.40944594
25	0x3f962f74	1.1733232
26	0x3eb53a4f	0.35396048
27	0x3f1ab789	0.604363
28	0x3ec8ce98	0.3922012
29	0x3f83a701	1.028534
30	0x3f441773	0.7659828
31	0x3f83b6f2	1.0290205
32	0x3e75fb9d	0.24021764
33	0x3eb6357c	0.3558768
34	0x3eef03dc	0.46682632
35	0x3e1d6829	0.15371765
36	0x3f9d7d76	1.2303913
37	0x3fa85e7d	1.3153836
38	0x3f05dd81	0.52291113
39	0x3f0ad876	0.54236543
40	0x3f5b8373	0.8574745
41	0x3e460fa4	0.19341904
42	0x3f5d5594	0.86458707
43	0x3f801b36	1.0008304
44	0x3f2db066	0.6784729
45	0x3fdf4198	1.7441893
46	0x3ed1b355	0.40957132
47	0x3ef97d31	0.48728326
48	0x3e16a2aa	0.14710489
49	0x3ecd28f5	0.4007031
50	0x3e697018	0.22796667
51	0x3f74fc16	0.9569715
52	0x3f106548	0.5640454
53	0x3f630136	0.8867372
54	0x3eb10139	0.34571245
55	0x3f9a7b76	1.2068927
56	0x3ebc2a92	0.3675123
57	0x3e975920	0.29560184
58	0x3e94892c	0.29010904
59	0x3ec77072	0.38952976
60	0x3f05780d	0.5213631
61	0x3f9bf80a	1.218507
62	0x3f2cf0e6	0.6755508
63	0x3cf100f6	0.029419404
64	0x3f9bd9c0	1.2175827
65	0x3fd3f0d8	1.6557875
66	0x3edc3ab4	0.43013537
67	0x3ea4fc5e	0.3222379
68	0x3fba71b2	1.4565947
69	0x3edd83ef	0.4326472
70	0x3e93510b	0.28772768
71	0x3d90848c	0.07056531
72	0x3e838bc3	0.25692567
73	0x3defce13	0.117092274
74	0x3ec22c13	0.3792425
75	0x3e7a1c99	0.24424972
76	0x3f516d6b	0.81807584
77	0x3ed10ea5	0.40831485
78	0x3e2a00cb	0.16601865
79	0x3f2b8f9b	0.67016
80	0x3f133b80	0.57512665
81	0x3efd2524	0.494424
82	0x3f210fae	0.6291455
83	0x3fcbf6f4	1.5934739
84	0x3e631fb7	0.22180067
85	0x3f699a8e	0.91251457
86	0x3da16500	0.07880592
87	0x3fa71825	1.3054243
88	0x3e5bfc0e	0.2148287
89	0x3efbd283	0.49184045
90	0x3ee49de4	0.4465171
91	0x3f876c38	1.0579901
92	0x3e627cb7	0.22117887
93	0x3e19d87a	0.15023986
94	0x3e75332c	0.23945302
95	0x3fc3fdc8	1.5311823
96	0x3f14d7ca	0.5814177
97	0x3e56f437	0.20991598
98	0x3d6589d3	0.056039643
99	0x3d2e0c36	0.042492114
100	0x3f7ec94e	0.99525917
101	0x3f0c39e8	0.5477586
102	0x3f0c5f95	0.54833347
103	0x3e82af76	0.2552449
104	0x3f7e4477	0.9932322
105	0x3f37df50	0.7182512
106	0x3ea65954	0.32490027
107	0x3f005575	0.501304
108	0x3fb5c7ba	1.4201577
109	0x3f4ced61	0.8004971
110	0x3e65c4ca	0.2243835
111	0x3dbc0fb6	0.09182684
112	0x3f100c03	0.5626833
113	0x3edc2111	0.42993978
114	0x3e7f0317	0.24903522
115	0x3e3573af	0.17719911
116	0x3df3ea60	0.11909938
117	0x3fbaa1ed	1.4580666
118	0x3ee15a8c	0.44014394
119	0x3ea36fdb	0.31921276
120	0x3f7da18a	0.99074614
121	0x3f0fafc7	0.5612759
122	0x3ea1053d	0.3144931
123	0x3f577c36	0.84173906
124	0x3ee118b1	0.4396415
125	0x3f97549c	1.1822696
126	0x3ecb2c33	0.3968216
127	0x3e7fc726	0.24978313
